models/mlp_multiclass_crossentropy20250901_164608.pth (torch, 82274 bytes, 21 tensors)

network.0.weight f4 [128, 48]
000000 70 cf d1 b5 35 57 41 3a 42 15 89 38 22 95 09 38
       -1.5632086e-06 0.00073753606 6.536629e-05 3.2802236e-05
000010 e2 c7 a1 38 a6 5b fa 39 2a b6 d6 39 8d 95 de 38
       7.714309e-05 0.00047752 0.00040952984 0.00010613641
000020 28 cd ac 38 91 86 71 39 22 35 83 39 db 6e 63 39
       8.2398125e-05 0.00023033681 0.00025025854 0.00021689704
000030 09 05 ab b7 c0 4f 0f 3a 68 31 96 3a 93 8b cc 38
       -2.0387133e-05 0.0005466901 0.0011458816 9.753476e-05
000040 94 ff 5d 39 86 b2 ff 39 2c 22 b3 39 d2 bb 0c ba
       0.00021171413 0.000487704 0.00034167 -0.00053685636
000050 cb b8 55 39 67 e5 3b 3a b9 c5 df 37 45 f8 e0 39
       0.00020382104 0.00071676675 2.6675743e-05 0.00042909585
000060 ad 25 cf 3a d4 e8 b9 39 1c 35 88 b9 f8 b9 e4 b8
       0.0015804075 0.0003545942 -0.0002597951 -0.000109065266
000070 2f 9d cf 38 2d a8 b6 39 a7 5e 59 38 15 57 0c ba
       9.899807e-05 0.00034839046 5.1824984e-05 -0.00053535524
000080 c5 e6 06 ba 10 30 d7 39 6e 60 1f 39 5a 5e 34 38
       -0.00051460817 0.00041043805 0.00015199344 4.3003216e-05
000090 e6 4d 65 39 bf 7e d3 b8 1f b3 32 ba dd aa 93 3a
       0.00021868161 -0.00010084872 -0.0006816852 0.0011266131
0000a0 0b 67 21 ba c6 a7 f4 b9 dd 92 53 b8 7d 9b c6 39
       -0.0006157017 -0.00046664308 -5.0443097e-05 0.0003788135
0000b0 1f b7 b3 b9 2d c8 eb b9 93 41 51 ba 12 f9 ed 3a
       -0.00034277976 -0.00044971835 -0.00079824886 0.0018155894
0000c0 9d bd 12 3c f9 03 4f bb af 83 49 bc 6d f9 f7 3b
       0.00895634 -0.0031588061 -0.012299462 0.0075675757
0000d0 5c c5 f6 ba 63 99 0f bb e6 b0 48 bc 02 33 9e bb
       -0.0018827128 -0.0021911494 -0.012249207 -0.004827858
0000e0 35 20 82 3c 1c 09 d5 bb e2 84 c8 3a 40 c1 23 bc
       0.015884498 -0.00650133 0.0015298391 -0.009994805
0000f0 82 ee b0 b9 c7 73 83 bb 9b d9 91 bc 53 a1 36 3c
       -0.00033747038 -0.0040116045 -0.017803958 0.011146861
000100 ba 69 39 3a a9 b1 0a 3b f2 8c bb bc f0 cc 90 3c
       0.00070729444 0.0021163023 -0.022894356 0.017675847
000110 5a 8c f4 bc 3d 6e 9a 3a b6 fe f6 bb b0 9b 93 3b
       -0.029852081 0.0011782121 -0.007537688 0.0045046434
000120 24 58 fd 3b 01 68 2e 3c 15 e7 55 3d 69 ed 91 ba
       0.0077314544 0.010644914 0.05222233 -0.0011133376
000130 4b ee f0 bb 68 6a 1b 3b 2e 12 46 bc 8b b1 4d 3d
       -0.0073526255 0.0023714546 -0.012089295 0.050218146
000140 72 a0 bc 3c b8 b6 35 bb 16 af 8f 37 74 60 37 3b
       0.023025725 -0.0027727317 1.712846e-05 0.0027981075
000150 e8 c1 54 bc 2e a3 6e bc 9d 02 fc 3c 72 b3 2d 3c
       -0.012985684 -0.014565272 0.030762965 0.010601865
000160 c7 3c fb bc c3 8f 3b bc f6 63 dd 3a 27 9d 12 3c
       -0.03066863 -0.01144785 0.0016890753 0.008948601
000170 d0 d9 8e 3b c7 ab ea 3b 79 a3 b2 3c e1 03 b3 3b
       0.0043594614 0.0071615907 0.021806465 0.005463109
000180 6d aa 88 bc a1 10 cc bc 09 86 b0 3b 38 23 66 bb
       -0.016682828 -0.024910273 0.005387072 -0.0035116207
000190 5e 9d 8b bb b0 a5 28 3b 9f ab 79 bc ef 4a d5 3c
       -0.004260703 0.0025733523 -0.015238672 0.026036708
0001a0 4d a4 0a bc 77 e3 17 bb 30 24 a7 bc ed fb 52 bc
       -0.008462024 -0.002317635 -0.020402998 -0.012877447
0001b0 3c 0e 1f bc 63 97 ca bb a0 68 19 3c e3 d4 9f 3b
       -0.009707984 -0.0061825975 0.009363323 0.004877673
0001c0 34 66 6b bc 13 34 27 bb 23 1c 3c bc 21 b8 16 bd
       -0.014367629 -0.0025513216 -0.011481318 -0.036796693
0001d0 be 41 41 3b 8a 89 72 bc 32 89 79 ba b1 b7 97 3b
       0.0029488648 -0.0148033 -0.000951904 0.004630052
0001e0 6d fb c2 3b c8 87 ec bb 8a 4c 39 3b 94 ac 3b 3c
       0.0059503824 -0.007218335 0.002827438 0.01145472
0001f0 0b ad d0 3c c6 e1 93 bc 6a 63 12 3c fd 82 6d 3b
       0.025473138 -0.018051993 0.008934835 0.0036241405
000200 13 eb 37 3c a0 d3 94 3b ac 1d 8b 3c 2f f9 b9 3b
       0.01122548 0.004541829 0.016981922 0.005675457
000210 91 3b fd 3b e8 59 4b 3b 2b 21 93 bd 5c 46 68 bc
       0.007728048 0.003102893 -0.07184061 -0.014176931
000220 a4 b0 a6 bd 58 92 0c bc 31 de 82 ba 5a d0 52 3c
       -0.0813916 -0.008579813 -0.0009984431 0.012867058
000230 2d 6c 53 bc 76 d3 30 bc bc 79 6c 3c 00 e6 e5 bb
       -0.012904209 -0.010792604 0.014433321 -0.0070159435
000240 04 12 a9 3c 13 96 65 3b c3 58 ab b9 47 09 e7 bb
       0.020638473 0.0035032078 -0.00032681794 -0.0070506665
000250 33 b1 d4 ba ff 14 6b bb 88 1c d5 3c 59 3e 68 bc
       -0.0016227126 -0.003587067 0.026014581 -0.014175021
000260 87 5f 38 bb 91 a6 d8 b9 22 3e 23 3d 41 52 93 3b
       -0.002813311 -0.00041322832 0.039854176 0.0044958894
000270 b9 dc 32 bc 7a 39 9d 3c 2b 2a 1c bd 90 43 0c bb
       -0.010916882 0.019192446 -0.038126152 -0.0021402575
000280 40 bc 77 3c 66 ac 90 ba 46 80 e0 3c b9 72 02 bc
       0.015120566 -0.0011037707 0.027404916 -0.007961922
000290 20 b0 cf bc 71 00 74 3b e0 99 20 3d df 74 6f 3c
       -0.025352538 0.0037231708 0.039209247 0.014615267
0002a0 88 a9 26 3d 0c 13 4e 3b 4c 3f da 3a 30 44 53 3a
       0.04068902 0.0031444458 0.0016650944 0.0008059172
0002b0 0c 30 33 bb bd a1 54 3c 47 cc c6 3b 3d bb 66 3c
       -0.002734187 0.012978015 0.006066832 0.014082727
0002c0 47 84 af bc a2 4a 75 bb d2 33 b0 bb 7d 90 42 bc
       -0.02142538 -0.0037428518 -0.005377271 -0.011875269
0002d0 b5 8c 96 bc 09 4a e9 bb 7a ff 90 bb 1f c7 83 3d
       -0.018377641 -0.0071194214 -0.0044249864 0.06434464
0002e0 af b2 e7 bc 12 75 33 3c 8a b0 29 3d 69 e5 92 3b
       -0.028283445 0.010953205 0.041428126 0.004482914
0002f0 1f f5 fe b8 e1 6d b5 bb ac 3e 3f 3c 8d e7 58 3d
       -0.00012157321 -0.00553678 0.011672657 0.0529552
000300 93 dd a4 bc 73 2d 87 3c 46 2c 3f bc 25 64 7e ba
       -0.020125186 0.016501164 -0.01166827 -0.0009704254
000310 dd 00 86 bb a1 6a 2a bd 3f 83 e0 3a 1d 0a eb 3b
       -0.0040894584 -0.041605595 0.0017128958 0.0071728365
000320 0d 85 f3 3b fb a8 00 bc 53 c6 2b bc fd b2 db bb
       0.0074316324 -0.007852788 -0.010484296 -0.0067046867
000330 b6 22 9f 3c bd 6b d9 bc f8 83 76 3c b8 dd 10 ba
       0.019425731 -0.026540631 0.015046112 -0.0005526203
000340 52 ef ce bc 79 39 01 bc 04 18 2c 3c 31 1a 2d 3c
       -0.025260601 -0.007887238 0.010503773 0.010565327
000350 06 26 ca 3c 47 89 29 3a f0 0c 69 3c ce 52 c7 3b
       0.024676334 0.00064672943 0.014224276 0.006082869
000360 e6 2d be bb 62 71 90 3c 9e e6 d1 3c 22 db 85 3b
       -0.0058038114 0.01763219 0.025622662 0.0040849606
000370 e5 e7 6b bb 57 f1 c8 3a 42 82 83 3b 79 b1 c7 3c
       -0.0035996374 0.0015330714 0.0040133307 0.024376618
000380 35 35 45 bd f5 26 3b bd 11 db eb 3c 11 e1 3e 3a
       -0.048146445 -0.04569145 0.028790982 0.00072814623
000390 27 1e 1c bc 24 6d 15 3b ab 3c 9a bd 87 7a 97 3c
       -0.009528673 0.0022800649 -0.07531103 0.018491043
0003a0 ff de 4f 3b 87 86 ee 3b e7 de 22 bd 22 42 56 3d
       0.003171861 0.0072792205 -0.039763357 0.052309163
0003b0 9d 8f ff 3b f8 09 3a 3c e8 59 69 bc 0e 89 5e 3c
       0.0077991025 0.011354916 -0.014242627 0.013582481
0003c0 a3 6d d2 3d e6 6c 8c 3d f3 94 6d 3c 4a d3 cb 3b
       0.10274818 0.06856708 0.014500844 0.006220256
0003d0 2a 49 10 3c c6 a5 55 bd 4f 17 25 bd dd 8c 12 ba
       0.008806506 -0.052160047 -0.040305432 -0.0005590448
0003e0 0f 68 a4 3a e6 5a a7 3b b9 87 c4 39 db de 98 bc
       0.0012543219 0.0051072715 0.00037485154 -0.018660953
0003f0 23 37 14 3c b4 d4 89 3c 57 c8 2e be 08 ff 6b bb
       0.009046349 0.016825058 -0.17068611 -0.0036010165

network.0.bias f4 [128]
000000 65 37 90 ba 44 4b 24 bd 1f af b3 3c 2c fc 41 bc
       -0.0011002837 -0.04011084 0.02193409 -0.011839908
000010 e5 f4 8d bd 6c 07 0c be 9d 83 03 bd fd 60 71 3a
       -0.069314755 -0.13674706 -0.032107938 0.0009207873
000020 1a 80 e3 39 23 70 e3 3b a9 2a 87 bd 6f b4 dd bc
       0.00043392257 0.006940858 -0.06599934 -0.027063577
000030 b0 c7 a1 bd 61 ea 81 bd e2 69 d7 3a d1 e4 b5 bd
       -0.078994155 -0.06343532 0.0016434754 -0.08881534
000040 f5 bb 29 3b 65 2a 61 bd 35 52 04 3a 7f 39 d6 bd
       0.0025899385 -0.05497207 0.000504765 -0.10460185
000050 fb 0a 38 bd b6 36 2d bd 6a be 9a 3b 4f f7 12 bd
       -0.044932347 -0.042288505 0.004722406 -0.035880383
000060 07 4b 11 bd 57 6f a9 38 05 23 d3 bd d6 fd 99 bd
       -0.035471942 8.0792866e-05 -0.10309414 -0.075191185
000070 a2 a6 4d bd f4 b5 18 be 3d dd 18 39 14 e9 84 3a
       -0.05020774 -0.1491316 0.00014578267 0.0010140263
000080 51 d4 fc bd 9a be dc bc bb b6 dd 3c 86 9f 3e bd
       -0.12345184 -0.026946355 0.027064672 -0.046538852
000090 a0 25 c2 bd 87 b5 c4 bc 6f ad d7 bc 5c 9c b2 bd
       -0.09479833 -0.02401234 -0.026327817 -0.087212294
0000a0 3e 49 00 bd 2c f7 98 bc 70 ba 9b bd 7d ce 60 bd
       -0.03131985 -0.018672548 -0.076039195 -0.054884423
0000b0 ed 6a 6c ba 2c 69 a7 3a 1f b3 f3 bd 0e 93 91 bb
       -0.0009018619 0.0012772433 -0.11899399 -0.004442579
0000c0 e8 4b f5 bc 2b 07 4b bd af 89 a1 bd ba 04 2b bd
       -0.029943421 -0.049567383 -0.07887589 -0.041752554
0000d0 6b fe 29 ba 8f 4e d4 bd ca 2b cc bd 7c 55 ab bd
       -0.00064847496 -0.10366546 -0.099692896 -0.08365914
0000e0 96 0a 00 be 63 57 c0 bc cf 83 c1 bd c8 ca d6 bd
       -0.12504038 -0.02347917 -0.094489686 -0.10487896
0000f0 2f 51 88 39 c3 a4 03 be 96 76 3f be 74 f0 99 bd
       0.00026000428 -0.1285582 -0.1869758 -0.07516566
000100 f8 2e f6 bd 5b f3 63 bd 9d 1e 97 38 e8 6a be bd
       -0.12020677 -0.055652004 7.205943e-05 -0.092977345
000110 4f 06 80 bd c3 2c 6d 3b 35 87 0b bb 75 38 bc bd
       -0.06251203 0.003619001 -0.0021290306 -0.09190456
000120 83 af 93 bb ec a9 57 bd 8c 3b c7 3c 72 ea 62 b9
       -0.0045070066 -0.052652285 0.024320386 -0.00021640377
000130 4d 4f cc bd 87 36 89 bd 7c a8 04 bb 46 11 98 3a
       -0.09976063 -0.066998534 -0.0020242026 0.0011601828
000140 55 7d 72 bd f2 75 95 bc 73 fb c5 ba 10 73 90 bc
       -0.059201557 -0.018244717 -0.0015104845 -0.017632991
000150 32 fe a1 bd fd 5e 23 bd 87 37 0e be 06 47 11 bb
       -0.07909812 -0.03988551 -0.1388837 -0.0022167577
000160 77 0f c7 ba 34 db 91 bc 0d 04 bb 3b f4 e9 26 bc
       -0.0015187104 -0.01780472 0.00570727 -0.010187615
000170 bb 10 51 bd 6f d7 8f bb 56 67 76 3a f1 de e4 bd
       -0.051041346 -0.0043896954 0.00093995535 -0.11175335
000180 18 17 59 3c 12 ae 8d ba d0 a8 f9 bc b1 ba a7 bd
       0.013250135 -0.0010809323 -0.030476004 -0.081899054
000190 b4 11 b3 bd 9a 6e 80 ba 82 78 53 bd e5 87 0a be
       -0.08743611 -0.0009798587 -0.051628597 -0.13528402
0001a0 1e f9 4b 3a c8 ed 4c bd f6 d7 58 bb 68 2f a4 bd
       0.0007780957 -0.050031453 -0.0033087707 -0.080168545
0001b0 af 1b d9 bd 4a ae 92 bd 44 9d 96 bd 30 dc ee bd
       -0.10600983 -0.07162149 -0.07354215 -0.11663091
0001c0 2b e0 40 bb 31 68 a3 3a e1 c9 e4 bd ab 06 fd b9
       -0.002943049 0.0012466965 -0.11171318 -0.00048260888
0001d0 ee 62 bf bc 5a 25 da b9 39 8d cb bb 00 a6 2c be
       -0.023362603 -0.0004160803 -0.0062119034 -0.16860199
0001e0 c2 24 4e 39 97 e4 d0 bd 99 f1 af bd 86 6e 76 3b
       0.00019659384 -0.1019985 -0.08591003 0.0037602498
0001f0 9b f5 81 bd 0c 58 90 3c 5a 4d 56 bd 3c da 8c bc
       -0.06345674 0.017620109 -0.052319862 -0.017193906

network.2.weight f4 [128]
000000 b8 77 77 39 97 99 5f 3d dc 53 88 3d 04 66 d4 3d
       0.00023600354 0.054589834 0.0665662 0.103710204
000010 18 a7 92 3d 55 ee a5 3d 3c 47 91 3d 14 08 aa 3a
       0.07160777 0.08102099 0.07093665 0.0012972378
000020 19 c1 72 bb 27 20 bd 3c 8b c5 9a 3d 83 e4 5b 3d
       -0.0037041365 0.02308662 0.075572096 0.053684723
000030 bc bf a8 3d 98 d1 96 3d a9 25 c2 39 23 ac a4 3d
       0.082396954 0.073641956 0.00037030622 0.08040645
000040 fd 52 11 3a f7 68 a4 3d 00 36 9a ba 18 77 a0 3d
       0.0005543677 0.08027833 -0.0011765361 0.07835215
000050 e5 38 af 3d dd 2f a6 3d 02 92 92 3d 88 65 78 3d
       0.08555774 0.08114598 0.07156755 0.060643703
000060 10 5c ad 3d d9 e6 68 3d 21 c1 8f 3d eb b7 b8 3d
       0.08464825 0.05686078 0.07019258 0.090194546
000070 65 a6 ad 3d 04 ca a9 3d 2e 0b a3 3d 5f fd 5b 3a
       0.08479003 0.082904845 0.07961117 0.0008391942
000080 b0 cd b9 3d 71 03 6f 3d 50 c5 5e 3d 40 a2 b0 3d
       0.09072435 0.05835289 0.05438739 0.08624697
000090 a0 04 cf 3d 81 ee 82 3d b8 79 8f 3d 9e de aa 3d
       0.10108304 0.06393147 0.07005638 0.08343242
0000a0 89 b1 92 3d 86 df 9e 3d 1a a3 81 3d 11 c8 a6 3d
       0.071627684 0.077574775 0.06329937 0.081436284
0000b0 00 f5 3f b9 61 32 8e 37 41 10 aa 3d c5 f9 96 3d
       -0.00018306449 1.6951179e-05 0.083038814 0.073718585
0000c0 df d3 90 3d 7e 4f 90 3d 0a e0 8f 3d 29 eb a7 3d
       0.07071661 0.07046412 0.07025154 0.0819915
0000d0 db f1 6b 39 3f dd d0 3d bc 34 9c 3d f5 a7 a6 3d
       0.00022501445 0.10198449 0.07627246 0.08137504
0000e0 2f 92 b4 3d 92 4b 63 3d 70 90 db 3d 34 38 ab 3d
       0.08816945 0.05549199 0.10720909 0.08360329
0000f0 6a d8 ca ba 71 16 8f 3d 53 9c be 3d 0f 4d b7 3d
       -0.0015475873 0.06986702 0.0930716 0.08950245
000100 7c fc 73 3d 24 7c 92 3d c7 a1 1e b9 a5 94 80 3d
       0.05956696 0.07152584 -0.00015128321 0.06278352
000110 a2 eb a1 3d 19 0d 98 3d 22 79 0a b9 59 be 9c 3d
       0.079062715 0.07424373 -0.00013205831 0.076534934
000120 7d 8f 30 3d 29 d6 c0 3d 0e 4a 84 3d ff 9c d1 3d
       0.04310559 0.09415848 0.06459437 0.10235023
000130 83 2f ad 3d ff ea ac 3d 77 60 bd ba 54 d3 4e 3d
       0.08456328 0.084432594 -0.0014448304 0.050494507
000140 5b 3a 8a 3d 61 bb 82 3d 76 aa 67 bb 3c 30 86 3d
       0.06749412 0.06383396 -0.0035349405 0.06552169
000150 3e 22 9e 3d d4 5d db 3d 5c 73 dc 3d fc db 83 3a
       0.07721375 0.10711256 0.107641906 0.0010060067
000160 40 37 c6 b9 a4 d9 20 3d 32 b5 23 bb f2 0a b9 3d
       -0.00037806667 0.03927006 -0.0024979827 0.09035291
000170 94 57 a8 3d 01 8b ba 3d ff d9 fb b9 15 75 ca 3d
       0.08219829 0.09108544 -0.0004803687 0.09885613
000180 ca 00 3c bc e5 6b 21 39 ab a8 62 3d d8 96 b5 3d
       -0.0114747975 0.0001539435 0.055336636 0.08866662
000190 cc 62 a1 3d a0 08 35 ba 8e 23 77 3d 9e a6 9a 3d
       0.07880172 -0.0006905887 0.060336642 0.07551311
0001a0 f0 f7 59 38 41 48 ac 3d 5d 1b ed bb 6d 6a 8d 3d
       5.196774e-05 0.08412219 -0.007235928 0.06905065
0001b0 fa 55 9f 3d e9 2b ab 3d 6e df 8d 3d 01 53 a3 3d
       0.077800706 0.083579846 0.069273815 0.07974816
0001c0 44 1e 99 bb 3d eb b2 b9 06 15 bd 3d dc d0 56 bb
       -0.0046727974 -0.00034126072 0.092325255 -0.0032778298
0001d0 ce 8a ae 3d 3b 7c 68 3a 83 3d 38 3d 19 ac 94 3d
       0.08522569 0.00088686094 0.044980537 0.072593875
0001e0 c0 eb 07 ba eb da 9f 3d af 4f 8c 3d d1 e3 32 3d
       -0.0005184971 0.07805427 0.06851136 0.043674294
0001f0 3d 85 a0 3d 01 96 8c 3d 11 8b 86 3d 4c 5d 8e 3d
       0.07837913 0.068645485 0.065694936 0.06951389

network.2.bias f4 [128]
000000 52 b7 a8 39 fd 20 02 ba 83 d6 9f 3c 78 8c c8 3c
       0.0003218004 -0.0004964022 0.019511467 0.024481043
000010 0e 41 6a bb 56 16 81 bb 8f a1 88 3c 9d 13 01 ba
       -0.0035744342 -0.00393943 0.0166786 -0.0004923882
000020 91 fc 6e ba b9 f9 99 bb a8 db 71 3c b5 67 03 bb
       -0.0009116615 -0.0046989587 0.014761843 -0.0020050828
000030 60 4f b7 3c 61 b9 ae 3c b5 3b d9 38 49 ee 18 3c
       0.022376716 0.02132863 0.000103584876 0.009334155
000040 71 db 1e 3a f1 94 10 bc 6e 05 a9 bb 8e ba 1e bc
       0.0006059921 -0.008824573 -0.005158118 -0.009688033
000050 61 e9 f4 bb 70 4e 1d 3c 29 a8 04 3b 34 c2 18 3a
       -0.00747411 0.0096012205 0.0020241833 0.00058272784
000060 cd f8 9b 3c b2 98 31 bb 8d 94 fb bb b1 92 8d 3c
       0.019039536 -0.002709907 -0.0076776207 0.017281862
000070 fe 5c c3 3c 74 7b 6e 3c 49 2b a3 3c 35 fd 75 b9
       0.023848053 0.014555801 0.0199181 -0.00023459348
000080 e0 7d 74 3c aa 3b 2e 3b 85 09 6c 3b dc 4b 3a 3c
       0.014922589 0.0026585856 0.0036016416 0.011370625
000090 6b 66 f3 3c bb 44 78 3c eb b0 ce ba dc eb 8f 3a
       0.029711923 0.015153105 -0.0015769278 0.0010980326
0000a0 ab 1f 65 3c da ed b3 3b 30 85 58 3c fb 0c be 3c
       0.013984601 0.0054910006 0.013215348 0.023199549
0000b0 79 a0 15 ba 8c 4a 84 ba 06 d6 30 bc f5 da d3 3c
       -0.0005707811 -0.0010093017 -0.010793215 0.025861243
0000c0 fc bd 96 3c 51 41 89 bb 9e ab 9e 3b 96 b4 ac 3b
       0.018401138 -0.0041886945 0.0048422357 0.005270551
0000d0 fb b6 d5 38 ce 56 9b 3c 43 6d 2c 3c 6c a5 fa 3b
       0.00010190714 0.01896229 0.010524097 0.0076491144
0000e0 0f 7c f4 3b ea da 62 ba 64 6e bf 3c f0 c2 ca 3c
       0.007461078 -0.00086538366 0.023368068 0.024751157
0000f0 c7 b4 8f ba d0 8e 97 bb 3c 69 e7 3c 82 16 c4 3c
       -0.001096391 -0.004625179 0.028248422 0.023936514
000100 55 a8 1f bc 8d df 22 3c 90 56 80 3a 18 2c e2 3a
       -0.009744723 0.009940994 0.0009791423 0.0017255573
000110 73 98 0d 3c d2 ce 96 3c 94 9e 17 ba d2 77 89 3b
       0.008642304 0.018409166 -0.0005783823 0.004195192
000120 de f3 dd 3b e5 b8 8e 3c cf 38 2c bb 90 68 fd 3c
       0.006773456 0.017422149 -0.0026278978 0.030933648
000130 7b 02 af 3c e9 6a 7a 3c d1 b5 ec ba ce d4 28 39
       0.021363487 0.015284278 -0.0018059557 0.00016101004
000140 57 91 ad bb bb 6e 16 3c 10 0b 06 3b e2 75 06 3c
       -0.005296867 0.009181674 0.002045337 0.008206816
000150 35 1b a8 3b fb 50 0f 3d b4 5a c1 bb 68 bf 94 b9
       0.0051301965 0.03498934 -0.0059007052 -0.00028371369
000160 65 22 21 3a 72 3f 94 3b 76 e8 75 b7 00 fd 39 3c
       0.0006146788 0.004524165 -1.4657262e-05 0.011351824
000170 c5 4c 74 3c 51 2b 12 3d 4e ae 76 ba 01 77 73 3c
       0.014910881 0.03568584 -0.00094101287 0.014859916
000180 87 17 9d 3b a5 75 da 39 d1 cf 2d bb d6 0c 66 3c
       0.0047940644 0.00041667852 -0.0026521573 0.014041146
000190 04 b1 96 3a 89 eb e4 39 03 05 7b bb 6e 03 a6 bb
       0.0011496847 0.00043663036 -0.0038302548 -0.005066327
0001a0 f6 89 df b9 ae e0 e8 3c 82 0c 06 37 13 f8 8b 3b
       -0.00042636663 0.028427448 7.989935e-06 0.004271516
0001b0 0c 2f c1 bb b0 31 e0 3c 40 50 e0 ba a1 9f 0f bc
       -0.005895501 0.027367443 -0.001711376 -0.008766086
0001c0 23 76 9d bb 10 fe 49 b9 9d 00 20 3a 5d db 55 3a
       -0.0048053428 -0.000192635 0.0006103607 0.0008157993
0001d0 f5 c9 7b 3c 1a 4e e6 39 30 1f 63 3c cc 52 16 bc
       0.0153679745 0.0004392721 0.013862416 -0.009175014
0001e0 34 8e 97 3a 4c 84 75 3b 3c 03 58 3b 56 12 c1 b9
       0.0011562766 0.0037462888 0.0032960912 -0.0003682549
0001f0 28 78 01 3c f3 81 b8 3c 61 1a 7b ba 56 4e ba 3c
       0.007902183 0.022522902 -0.0009578821 0.022742432

network.2.running_mean f4 [128]
000000 10 a6 d6 3a 66 2d 52 3d 9c b5 c0 3d f0 1f 53 3d
       0.0016376395 0.051312827 0.09409639 0.05154413
000010 6e 8f c3 3c bd 87 5b 3c d2 94 59 3d 42 d1 f2 3b
       0.023872104 0.013399062 0.05312044 0.0074101994
000020 47 b1 73 3c 8c 9b 12 3d 18 c0 d9 3c c0 9a 4d 3d
       0.014873809 0.035792872 0.026580855 0.05019641
000030 73 4a 20 3d cd 22 0a 3d 7c 9d 16 3c 79 ff 68 3c
       0.0391335 0.033724595 0.009192821 0.014221066
000040 cc 04 2c 3c 7a 41 51 3d 6d b5 e4 3b c6 d5 bc 3c
       0.010499191 0.051087834 0.0069796355 0.023051154
000050 6a 52 54 3d c2 56 f2 3c f6 d7 94 3d d4 9b ef 3c
       0.05183641 0.029582385 0.07267754 0.02924911
000060 8f f9 08 3d 14 2b 43 3d 3d d1 84 3c 91 ce 39 3d
       0.033441123 0.047648504 0.016213054 0.045363013
000070 75 5e f7 3c 9e 31 89 3c d6 cd 51 3d ce 36 6b 3b
       0.030196408 0.016747292 0.05122169 0.003589082
000080 6a 5b d7 3c d9 d8 17 3d 7a 89 97 3d 96 86 d4 3c
       0.026288707 0.037072036 0.073992684 0.025943082
000090 8a e9 17 3d 19 51 21 3d be 12 26 3d 16 c3 c8 3c
       0.037087955 0.03938398 0.040545218 0.024507087
0000a0 5b b7 1d 3d 3e 32 a9 3d c7 74 3b 3d de b9 fa 3c
       0.03850494 0.08261536 0.045765664 0.030606207
0000b0 1e 2b 13 3b ba 48 d8 3b 41 88 f2 3c 3b 70 40 3d
       0.002245612 0.0066004666 0.029605987 0.04698203
0000c0 33 54 6b 3d cc 85 16 3d 0e 8a 8f 3c be 83 11 3d
       0.057453346 0.036748692 0.017521884 0.03552603
0000d0 33 75 d4 3b 4c 11 9a 3c 43 96 32 3c 75 eb a7 3c
       0.006483698 0.018807076 0.010900083 0.020498017
0000e0 19 20 f0 3b 25 39 04 3d 01 45 37 3c 65 69 95 3c
       0.007328045 0.03228106 0.011185885 0.018238733
0000f0 74 d7 1f 3c 8a 2d 21 3b 4e 54 d9 3b 26 18 01 3d
       0.009755958 0.0024593794 0.0066323644 0.03151717
000100 1e d4 68 3b 9c 84 1a 3d 6f c2 b1 3b 4b 09 96 3c
       0.0035526822 0.037724122 0.0054247896 0.018314978
000110 a1 32 17 3d 88 9e 89 3d b8 30 a8 3b 27 29 d9 3c
       0.036913518 0.067196906 0.005132761 0.02650888
000120 d8 19 4e 3d 0a d4 0d 3d 50 7d 98 3d 49 2a 74 3d
       0.050317615 0.034626044 0.074457765 0.05961064
000130 74 c7 0f 3d dd 44 01 3d 75 75 e8 3b 9b 06 06 3d
       0.035102323 0.031559814 0.00709408 0.032721143
000140 4d 7f 70 3d a8 fe 39 3d ae 92 09 3c 14 75 70 3d
       0.058715153 0.045408875 0.008396788 0.058705404
000150 f0 71 79 3c e5 bf 51 3d 53 2e 29 3d 6c 20 86 3b
       0.015224919 0.051208396 0.041303944 0.0040932205
000160 63 1c 8e 3b 78 a3 e3 3c 92 15 6b 3c 06 de 4f 3d
       0.00433688 0.027787909 0.0143484045 0.050748847
000170 bc 9f fa 3c 56 76 3c 3d cf 5e 22 3c bd 2b b9 3c
       0.030593745 0.04601129 0.009910299 0.022603864
000180 4d 60 00 3d 71 4b bb 3b e7 aa 24 3d 1d 2e 92 3c
       0.03134184 0.0057157804 0.040202048 0.017844254
000190 cb 33 e9 3c c5 44 cc 3b 09 ba d4 3c 05 f1 8f 3c
       0.02846708 0.006233784 0.025967615 0.017570982
0001a0 be d7 6a 3b ef 3b 2f 3d f4 27 3a 3c 50 4e 00 3d
       0.0035834159 0.042781767 0.011362065 0.031324685
0001b0 fe 13 f8 3c f3 68 2b 3d c2 96 1e 3c a4 f8 bb 3c
       0.03028297 0.041848134 0.009679498 0.02294571
0001c0 59 ff 4f 3c ac ab dd 3b f0 c6 2e 3c 09 05 3c 3c
       0.012695157 0.0067648496 0.010667548 0.01147581
0001d0 05 ba 37 3d ac a0 c7 3b e1 b4 31 3d 38 1c 91 3b
       0.044855136 0.0060921516 0.04338539 0.0044284128
0001e0 6c 08 13 3c 4c 45 84 3c c6 d3 85 3c 47 c2 01 3d
       0.008974176 0.016146325 0.016336333 0.031679418
0001f0 88 f1 08 3d 49 3c 77 3d 1e ec 30 3d d3 87 50 3d
       0.033433467 0.060360227 0.04319393 0.050910782

network.2.running_var f4 [128]
000000 cc bc cf 37 65 9d f6 3b b4 43 ec 3b 70 59 ca 3c
       2.4764238e-05 0.007526087 0.0072102193 0.02470085
000010 10 46 58 3b e5 4a a9 3c 31 0b cf 3b b1 3f 56 39
       0.0033000745 0.020665595 0.006318473 0.00020432357
000020 91 8e bd 3a 91 1a 82 3b 7b ec 4e 3b 5a 8c cc 3b
       0.0014462044 0.003970452 0.0031574059 0.006242317
000030 94 c7 8a 3b c5 66 7d 3c e1 97 0e 3a d7 04 07 3b
       0.0042352173 0.015466397 0.0005439502 0.002060225
000040 e0 c4 15 3a f2 9d 74 3c b7 e8 c4 39 ed 14 2b 3b
       0.00057132356 0.014930235 0.0003755742 0.0026105002
000050 87 44 70 3b c0 f5 62 3b a2 08 a8 3b dc 8a c5 3b
       0.003666194 0.0034631342 0.0051279822 0.006028516
000060 d0 e0 68 3b 0d 8d 9f 3b c0 d2 f3 3a 1c d4 df 3b
       0.003553439 0.0048691095 0.0018602237 0.0068307053
000070 ac d4 24 3b 41 d0 45 3b be bd 88 3b 91 46 a2 37
       0.0025151176 0.0030183943 0.0041730097 1.9344765e-05
000080 e3 5c 2a 3b 74 3e 25 3b 8f c6 40 3b fb d0 08 3b
       0.0025995306 0.0025214227 0.0029415225 0.0020876515
000090 30 ac 5e 3b fe 0d b8 3b da c6 82 3c 2c ec 1c 3b
       0.0033977143 0.0056169024 0.01596396 0.002394448
0000a0 11 80 7d 3b de b5 e1 3b 53 16 95 3d d0 27 43 3b
       0.003868107 0.0068881353 0.07279649 0.0029778369
0000b0 4d 42 20 38 23 2a 13 39 bb 6c 3d 3b 20 92 85 3b
       3.820872e-05 0.0001403471 0.002890392 0.0040762573
0000c0 c7 21 0e 3c 6f 38 0c 3c 80 50 01 3d 82 69 19 3c
       0.008675045 0.008558377 0.03157091 0.009363534
0000d0 60 4a 3a 39 73 a7 be 3a 24 ce 64 3b 46 1f 52 3c
       0.00017766049 0.0014545753 0.0034912908 0.012824839
0000e0 ba 3b cd 3b 73 f6 b9 3b fb 02 16 3b 18 dc a3 3a
       0.0062632235 0.005675131 0.002288996 0.0012501506
0000f0 12 b1 f4 39 bf e0 99 3b d7 1b 1f 3a 1c 76 ac 3b
       0.00046671234 0.0046959813 0.0006069517 0.005263103
000100 f1 ab 0e 3c d9 39 42 3c 0b d9 40 39 1b ca b6 3a
       0.008707986 0.011854612 0.00018391402 0.001394573
000110 1e ac 0c 3c 6d a2 04 3c 6f f3 ee 38 ef 96 54 3b
       0.008585958 0.008095366 0.000113940674 0.0032438596
000120 2d c4 ec 3b da fd 7c 3b d9 47 2e 3b c8 72 f8 3b
       0.0072255344 0.0038603456 0.0026593118 0.0075820424
000130 f9 23 39 3c 9c 57 8c 3b f4 a7 5f 3a d5 25 83 3b
       0.01130008 0.004282905 0.0008531802 0.0040023127
000140 32 98 ea 3b 3e 79 94 3b b5 af 5c 39 ff 28 3d 3c
       0.0071592564 0.0045310548 0.00021046291 0.011545419
000150 8b fb ba 3a 3f 50 ba 3b a0 be 16 3c 21 12 32 39
       0.001426564 0.0056858356 0.009200722 0.00016982156
000160 ca 46 bf 38 58 e6 db 3b 47 98 cb 38 7a 84 3b 3c
       9.120775e-05 0.0067108087 9.708158e-05 0.011445159
000170 c8 d2 23 3c d5 64 c1 3b a9 9d 8d 39 b6 24 1b 3b
       0.009998985 0.0059019127 0.00027011082 0.0023673004
000180 ca 71 20 3b 46 5e 75 39 d5 66 4d 3b 5d f3 9b 3a
       0.0024481886 0.0002340014 0.003134181 0.001189809
000190 dc d8 0c 3b 76 de 97 39 13 30 52 3b 33 80 1c 3c
       0.0021491563 0.0002896671 0.0032072111 0.009552049
0001a0 d0 93 c2 37 c3 25 ba 3b a0 ce a0 3a a6 a4 5a 3b
       2.3195433e-05 0.005680771 0.001226861 0.0033362298
0001b0 25 33 24 3c 24 fd b3 3b a4 1f b8 3a 09 03 ac 3c
       0.010021959 0.005492823 0.0014047516 0.020997541
0001c0 55 8f e5 3a f8 7c 11 39 3e 95 14 3a 01 64 a0 39
       0.001751403 0.00013874832 0.0005667991 0.00030592087
0001d0 7e 38 df 3b a4 bc 40 39 0f 80 b6 3b 19 38 70 3b
       0.0068121543 0.00018380821 0.005569465 0.003665453
0001e0 b5 58 62 39 70 c4 d7 3a b9 79 db 3b b2 23 90 3b
       0.00021586085 0.0016461741 0.00669786 0.0043987865
0001f0 65 41 bc 3b 4f 5d a3 3b 0f df 50 3c 7f a9 23 3c
       0.0057451003 0.0049854885 0.012748494 0.0099891415

network.4.weight f4 [64, 128]
000000 ef b2 9b 3a 3b 6b 5c bc 30 53 a3 bc 36 ba 09 bd
       0.0011878888 -0.0134533 -0.019937128 -0.03362485
000010 10 4a 89 3c 29 79 3d bc c8 ba f3 39 44 87 40 b9
       0.016758949 -0.011564531 0.00046487735 -0.00018360937
000020 84 fa 67 ba d4 3d 2c bb a9 4f 72 bc 18 9c 0c 3d
       -0.00088492804 -0.002628197 -0.0147895 0.03432855
000030 04 b4 ee 3c 5b bc cf 3c 00 6e 0b ba c6 99 a0 3b
       0.029138573 0.02535837 -0.00053188205 0.0049011437
000040 82 d7 7f ba 56 0d 00 3c ff eb 0c 3b ad b0 59 bc
       -0.0009759591 0.00781568 0.002150297 -0.013286752
000050 e1 1e db bc 7f 40 0e 3d 12 e1 d5 ba 27 ec d3 3b
       -0.026748123 0.034729477 -0.0016317687 0.0064673605
000060 70 21 29 bc 20 d0 55 3c 10 3c c0 3b 39 40 c7 3c
       -0.0103229135 0.013050109 0.005866535 0.024322616
000070 65 b0 04 bd e3 3c 21 3c 47 56 36 3c 9b 2d c0 ba
       -0.032394785 0.009841177 0.011128969 -0.0014662029
000080 d8 16 4f 3d 43 45 b5 bc d4 c8 ae 39 c2 65 5c 3c
       0.050558895 -0.022127753 0.00033337495 0.013451995
000090 5f 89 fd 3c 53 a0 b7 ba b5 8c 99 bc 61 9f d9 3c
       0.030949293 -0.0014009572 -0.018743852 0.026565256
0000a0 89 e2 12 bd df e7 05 bc ba c7 33 bd 58 38 57 ba
       -0.035860572 -0.008172958 -0.043891646 -0.0008209995
0000b0 ff a6 91 39 a1 6d b4 ba 1f c8 b9 3c e2 5a fa bc
       0.00027780977 -0.0013765582 0.022678433 -0.030560914
0000c0 27 e4 21 3a 6d d2 23 3d af f5 60 bc 53 bf fc bc
       0.000617566 0.0399956 -0.0137304505 -0.03085295
0000d0 bb fb 7c ba bd b5 1d 3d 8a cb 2f 3c a4 93 52 bd
       -0.0009650548 0.038503397 0.01072968 -0.051410332
0000e0 7f 59 6f 3c 1b 1f 41 bb bd 20 9a bc 53 6b 97 3c
       0.01460874 -0.0029468003 -0.018814439 0.018483793
0000f0 03 86 21 3b b9 3d cc 3c 40 1b dd 3c 0b 9e e9 bc
       0.0024646528 0.024931775 0.026990533 -0.028517744
000100 e4 46 67 bc 07 fc ff 3c 67 55 2e bb 22 c7 e0 3c
       -0.014116023 0.031248106 -0.0026601197 0.027438704
000110 97 b1 06 bd ff c5 c5 3c 80 78 d4 3a 1c 3e ca 3c
       -0.032884207 0.024142263 0.0016210228 0.02468782
000120 05 a1 7c bc 79 69 27 bd 11 98 50 3c 70 63 8c 3b
       -0.015419249 -0.04087207 0.012731568 0.004284315
000130 3d bf 12 3d 97 84 fe 3c f7 28 80 ba 3c 26 b9 bb
       0.03582691 0.031069083 -0.0009777833 -0.00565031
000140 17 7d 57 ba a8 89 a8 3c 04 ba 21 3b 36 b3 96 3c
       -0.0008220239 0.020573452 0.0024677524 0.018396001
000150 0c ac 6d 3c 84 22 71 3c b9 51 3a 3c 0b f6 3b ba
       0.014506351 0.014717702 0.011372023 -0.0007170147
000160 d7 02 70 bb 00 f8 2b 3c 0b de 1f 3a 5f cd d7 3a
       -0.0036622786 0.0104961395 0.00060984556 0.0016464404
000170 c7 f1 26 3c a0 dc 17 3a f3 7f dc 39 06 8c 1b bd
       0.01018948 0.00057930686 0.00042057 -0.037975334
000180 95 33 37 3b fe 0d 36 39 bb 54 15 3c 63 54 ac 3c
       0.002795433 0.00017362085 0.00911444 0.021036332
000190 2d 5d 17 3c 09 9c 97 bb 61 77 9e ba 98 fe 26 3d
       0.009238523 -0.004626755 -0.0012090021 0.040770143
0001a0 24 c3 f4 b8 90 b6 22 bd 25 20 de 3b ea 25 e3 3c
       -0.000116711744 -0.039724886 0.0067787343 0.02772804
0001b0 d5 43 14 bb 2d 12 ac ba d3 c5 99 3c 59 82 1e bd
       -0.002262344 -0.0013127975 0.018771088 -0.038698528
0001c0 8f 06 42 3b d7 3a 66 3b 80 c6 1d 3d 9c 1d 7e b9
       0.002960596 0.0035130286 0.038519382 -0.00024234358
0001d0 35 91 d9 bc 35 f2 e8 ba 11 d4 59 3c 4d b9 47 bc
       -0.026558498 -0.0017772379 0.0132951895 -0.012190175
0001e0 bb 48 2e bb ae a9 d0 3c 87 c8 44 bb 20 6f 5d 3b
       -0.0026593644 0.025471535 -0.003002675 0.003378816
0001f0 32 4c a1 bc 74 78 ff bb 41 85 6c bb 71 17 63 3a
       -0.019689653 -0.0077963416 -0.0036090168 0.0008662856
000200 a2 4a 56 b7 7c b8 a3 3c 21 dc f4 3b 30 ae bb 3b
       -1.2772771e-05 0.01998543 0.0074725305 0.005727552
000210 48 40 57 ba 55 f6 b2 bc 0b 39 90 bc 29 e2 8a b9
       -0.0008211178 -0.021845976 -0.017605325 -0.00026489914
000220 5a 3f 27 3b 98 28 6d bc f1 fe 94 3b 24 61 f9 bc
       0.0025519938 -0.01447501 0.004546993 -0.030441828
000230 02 38 e1 3b b3 05 45 3c 4c a8 a2 3b 03 00 fd ba
       0.0068731317 0.012025285 0.00496391 -0.0019302372
000240 76 dd 3b bb a3 80 82 bb 11 dc 96 3b c7 a0 40 bb
       -0.0028665937 -0.00398262 0.0046038707 -0.0029392706
000250 75 51 ce 3c 14 d3 86 bc b8 de 51 3c de 0c 97 bb
       0.025185326 -0.016458072 0.012809448 -0.004609688
000260 ca 89 a1 bc 6a e3 fb 3c 5a dc 55 bc 00 22 9a 3c
       -0.019719023 0.030748088 -0.013053024 0.01881504
000270 ba ff 25 3c f4 aa 8a bc 84 34 90 bc 8d c0 f8 b9
       0.010131771 -0.01692722 -0.017603166 -0.00047445708
000280 91 0b cf b9 65 5e aa 3c 8a 55 8a 38 38 bc 2d bd
       -0.00039490734 0.020796964 6.596286e-05 -0.042415828
000290 eb 8c bc bb 25 7b 08 3c 40 6e 92 3c b5 92 c4 3c
       -0.0057541034 0.008330141 0.017874837 0.023995737
0002a0 ce b6 16 3c d5 68 36 3d 5f 73 7e bc 52 c9 ca 3a
       0.0091988575 0.04453357 -0.015530436 0.0015471375
0002b0 79 d1 e3 b9 9e 87 34 ba ba 76 ae 3c 9b 9d a4 3c
       -0.00043452883 -0.00068866636 0.021296848 0.020094683
0002c0 73 63 85 3c 5a d5 fd 38 51 40 03 bd fd e6 a2 3c
       0.016282773 0.0001210372 -0.03204376 0.019885534
0002d0 73 81 4a bb cc e7 a4 bc fe d2 e9 bb e1 cb c5 3c
       -0.0030899912 -0.02013006 -0.007135748 0.024145069
0002e0 dd 85 d1 3b 81 83 eb bc 36 77 0f bd c4 a5 c2 3c
       0.0063941316 -0.02874923 -0.035025798 0.023760684
0002f0 e1 00 bd 3a 3e 56 bf 3b ed 3b 6d 3b 8b 22 85 bb
       0.0014419818 0.0058391383 0.0036199049 -0.0040629557
000300 4b 3d a6 bb 4d 21 b0 bb 22 11 86 ba 21 37 8a bc
       -0.0050732247 -0.0053750635 -0.0010228495 -0.01687199
000310 f8 ed 52 bc f6 0b d3 ba 07 87 9d 39 15 41 83 3c
       -0.012874119 -0.0016101587 0.00030045977 0.016022244
000320 8d 9b c9 bc 41 f2 97 bb 82 21 49 bc a1 f1 43 3d
       -0.024610305 -0.004637033 -0.012276055 0.047837857
000330 a2 fa 18 bc 1c ff 1e bc f2 13 e5 3b 0b 52 8c bb
       -0.009337099 -0.0097043775 0.006990903 -0.004282241
000340 e3 90 33 bc 23 9b 1b 3c 06 32 7f 3a c7 d6 2f 3c
       -0.010959837 0.009497437 0.0009734932 0.010732359
000350 2e 8a af bc 52 f5 7f 3b 38 de 6a 3d d2 31 12 3b
       -0.021428194 0.0039056134 0.05734083 0.0022307527
000360 d5 67 99 bb 00 94 15 3b 22 4f 33 3a c6 20 13 bc
       -0.004681567 0.002282381 0.00068401 -0.008979982
000370 8a 3c 33 39 7f 85 71 bb 30 ec 15 3b cf 7e cf 3b
       0.00017093323 -0.0036853252 0.0022876374 0.0063322554
000380 45 01 47 3c 86 94 95 bb 85 07 c5 3c 73 50 ba bc
       0.012146299 -0.0045648245 0.024051437 -0.02274344
000390 7c 94 53 bd 43 53 06 bb 83 34 1d 3b 0a 97 fa bc
       -0.051655278 -0.0020496405 0.0023987598 -0.0305896
0003a0 98 82 ed b7 da 8e ed 3c 48 6a 80 3b d8 5e 36 3c
       -2.8313414e-05 0.028998781 0.0039189197 0.011131011
0003b0 7e c1 b8 bc 45 f6 a7 3c d0 f7 d2 bc 91 67 33 bd
       -0.022553202 0.020503173 -0.025752932 -0.04379994
0003c0 4e 4e b7 3b a3 20 d2 b8 1b 00 b3 bc 70 a4 27 bb
       0.0055940514 -0.000100196594 -0.021850636 -0.002558019
0003d0 73 69 b2 3c 6d 60 21 bb b4 17 85 3c 8a 9d 46 bc
       0.021778798 -0.0024624125 0.016246654 -0.012122521
0003e0 19 c5 ce ba 27 e9 e4 ba 5f a6 6d bc b2 bc dd 3b
       -0.0015775292 -0.0017464504 -0.014504998 0.006766879
0003f0 0f 91 9d bc 32 77 aa 3c 31 25 20 bc df 5f c7 3c
       -0.019234208 0.02080879 -0.009774492 0.024337707

network.4.bias f4 [64]
000000 5f 48 c5 bc 8a b7 10 bc b4 33 3e bc 59 a4 fd bb
       -0.02408236 -0.008832822 -0.011609007 -0.007740539
000010 00 fd 12 bc 68 23 1d bc 6c ef 87 bb 9b ec e3 bb
       -0.008971453 -0.009590961 -0.0041484144 -0.006955696
000020 04 2a d8 bb e7 81 2d bc a1 1e 9c ba 01 13 9d bb
       -0.0065968055 -0.010590053 -0.0011910984 -0.004793525
000030 07 8d 2f bc 35 43 9f bb 1f 50 d4 bb e3 e3 21 bc
       -0.010714776 -0.0048603066 -0.0064792777 -0.009880993
000040 1d 01 4d 3c 8a fb d8 ba 1c 9b 43 ba 4d 51 fe b7
       0.012512472 -0.0016554457 -0.0007461773 -3.0317018e-05
000050 3b 11 01 bd be 80 9b bc 0a f4 35 bc a4 b4 92 bc
       -0.031510573 -0.018982287 -0.011105547 -0.017908402
000060 02 e1 2c bc 8b 9e e4 bb 57 6c 1e bc 45 28 ba bb
       -0.010551693 -0.0069769076 -0.009669385 -0.00568107
000070 ab f9 b7 bb 72 73 33 bc b2 c4 00 bc 8f 74 19 bc
       -0.0056144795 -0.010952817 -0.007859396 -0.009366169
000080 7f 5e 08 bb 78 ba d2 bc 58 62 35 bc b2 58 6c bc
       -0.0020808277 -0.02572368 -0.01107081 -0.0144254435
000090 9f 3c 71 bb 2a 46 a9 bb 2f 23 b5 bb 0b 5a 15 bb
       -0.0036809815 -0.005165835 -0.005527876 -0.0022789265
0000a0 69 29 29 bc 60 d9 19 bc 2b cc 65 bc f9 39 2b bc
       -0.010324814 -0.009390205 -0.014025728 -0.0104508335
0000b0 00 20 88 3c eb d7 1e bc a4 3d a9 bb b9 73 b1 37
       0.016616821 -0.009695034 -0.005164819 2.1153932e-05
0000c0 70 45 d6 3a d6 40 c6 bb bd a1 4a bc dd 72 09 bc
       0.0016347598 -0.0060502095 -0.012367663 -0.008389202
0000d0 07 79 c2 bb 90 20 22 bc 2c a4 20 bc b2 ca 31 bc
       -0.0059348377 -0.009895459 -0.009804767 -0.010851549
0000e0 61 75 dd bb e6 ec 50 bc 4a 4e c7 ba d3 01 6a bc
       -0.0067583774 -0.0127517935 -0.0015205827 -0.0142826615
0000f0 37 db 44 bb a5 47 77 bc 89 70 04 bb af f1 ee bc
       -0.0030037889 -0.015092765 -0.0020208678 -0.029167978

network.6.weight f4 [64]
000000 d3 df 01 3e 48 9a f3 3d 16 fe 01 3e 0b 53 d7 3d
       0.12683038 0.11894661 0.12694582 0.10513886
000010 5d f6 fb 3d ff 8c 08 3e d8 33 eb 3d e5 67 e3 3d
       0.123028494 0.13335036 0.11484498 0.11103801
000020 39 6c 02 3e 4b 13 fb 3d 3e 82 e5 3d 7e ad f5 3d
       0.12736596 0.12259539 0.11206482 0.11995982
000030 79 fa b0 3d 1b 19 e2 3d c5 67 01 3e 3d 3f 0b 3e
       0.08641524 0.11039945 0.12637241 0.13598342
000040 5e 91 bc 3d 8a 67 e9 3d ef 6b e7 3d 0d 3f e8 3d
       0.09207414 0.11396702 0.112998836 0.11340151
000050 d3 28 bc 3d 5a 78 f7 3d 42 ee d8 3d 42 98 c7 3d
       0.09187474 0.12083502 0.10592319 0.09745838
000060 87 1b ca 3d 80 12 ff 3d 7c f1 06 3e cd 0a c1 3d
       0.09868532 0.124547005 0.13178056 0.09425888
000070 9b 96 fc 3d 4c f0 0f 3e 2d 3b ca 3d 79 d9 0a 3e
       0.12333413 0.1405651 0.09874568 0.13559522
000080 8e b5 f8 3d 5e 1a e5 3d bb 9e c2 3d dc ef c2 3d
       0.12144004 0.1118667 0.09502932 0.09518406
000090 a3 e2 d5 bd 47 03 c6 3d 9d da d1 3d 2e 4f e2 3d
       -0.10443618 0.09668594 0.10246775 0.110502586
0000a0 07 45 05 3e 35 7c 04 3e e8 67 fa 3d 96 70 ed 3d
       0.13014613 0.12938006 0.1222685 0.1159374
0000b0 cc 17 d0 3d 91 14 f3 3d c1 47 d7 3d b5 1b da 3d
       0.10160789 0.11869157 0.10511733 0.10649816
0000c0 b3 81 bc 3d c6 33 03 3e cd 16 f4 3d c7 3d de 3d
       0.09204426 0.12812719 0.119184114 0.10851627
0000d0 37 16 05 3e b0 c0 00 3e 90 57 03 3e 90 26 f8 3d
       0.12996756 0.12573504 0.12826371 0.1211673
0000e0 16 1f 01 3e 56 37 d2 3d 1d 2e e3 3d d5 89 0a 3e
       0.12609515 0.10264461 0.1109278 0.13529141
0000f0 23 06 d4 3d 91 90 d0 3d 2a 3b c2 3d 9d 44 da 3d
       0.10352733 0.10183824 0.09483941 0.10657618

network.6.bias f4 [64]
000000 a8 78 04 3d 39 06 27 3d 61 c4 1c 3d d5 fe e0 3c
       0.03234163 0.04077742 0.03827322 0.027465263
000010 c1 10 37 3d a6 58 23 3d 4c 8d 4d 3d 25 93 b9 3c
       0.044693712 0.039879464 0.05018358 0.022653172
000020 a9 5f 4a 3d 50 9a 2b 3d e7 37 39 3d f6 85 34 3d
       0.049407635 0.04189521 0.04521933 0.044073068
000030 b0 3c 1a 3d a6 47 51 3d 72 d1 6b 3d b6 f2 63 3d
       0.037655532 0.05109372 0.05757279 0.05565139
000040 ce 81 70 3a e3 cb 0b 3d 28 09 20 3d 3d 5e 29 3d
       0.0009174616 0.03412999 0.039071232 0.04134964
000050 da fc ae bb 03 e0 c7 3c b5 65 e9 3c 12 fd ba 3c
       -0.005340201 0.02439881 0.02849088 0.022825751
000060 a1 14 c9 3c d3 bf 3f 3d 65 4f 10 3d 92 a4 93 3c
       0.02454597 0.046813797 0.035231967 0.01802281
000070 36 b8 3f 3d cb 85 3a 3d 76 f5 66 3c f7 13 0f 3d
       0.046806537 0.04553775 0.014096608 0.03493115
000080 dc 6d 17 3d 87 cc 9d 3c 24 bb d6 3c be 26 52 3c
       0.036970004 0.019262565 0.026212282 0.01282662
000090 f1 2a 54 bd 05 ff e2 3c 40 78 26 3d ec 5e 37 3d
       -0.051798765 0.027709493 0.040642023 0.04476826
0000a0 98 84 2b 3d 06 fb 57 3d 81 ae 18 3d 73 1e b5 3c
       0.041874498 0.05272963 0.037275795 0.022109246
0000b0 75 92 9f 3c c3 13 f8 3c d2 4b 4e 3d ba d0 2d 3d
       0.019479016 0.03028286 0.050365277 0.042435385
0000c0 1c 8e da 3c 55 75 76 3d 7c a5 06 3d 4a e3 2a 3d
       0.026679091 0.06017049 0.032872662 0.041720666
0000d0 ba de 42 3d ef 91 11 3d 27 7e 19 3d 9d 03 1d 3d
       0.04757569 0.035539564 0.037473824 0.038333524
0000e0 0f 92 4b 3d 91 d8 a8 3c 75 80 2f 3d b0 d8 bc 3c
       0.04969984 0.02061108 0.042847116 0.023052543
0000f0 ea 9d 48 3d 5c 4d e3 3c 41 d1 0e 3d 49 31 b3 3c
       0.048978724 0.027746849 0.03486753 0.021874087

network.6.running_mean f4 [64]
000000 f3 99 c2 3b 21 98 1d 3c 0f a1 84 3b d5 40 3e 3c
       0.0059387623 0.00961879 0.00404752 0.011612137
000010 67 b5 85 3b 40 da 7a 3b 0e 0b 9e 3b 80 3d 16 3c
       0.0040804627 0.003827706 0.004823095 0.009169936
000020 e0 fb ce 3b 82 f5 55 3b 3a 27 ff 3b 92 a9 a5 3b
       0.006316647 0.0032647555 0.0077866586 0.0050556147
000030 98 f4 11 3c c5 78 bc 3b 3e 44 be 3b 1a d1 e2 3b
       0.008908413 0.0057517015 0.005806475 0.0069218995
000040 4c f5 85 3c c3 cf b9 3b 9d 6a e5 3b 58 6d f7 3b
       0.016352318 0.005670519 0.0070012347 0.0075508766
000050 2a 8d a3 3a 4a 8f 18 3b fa 4f 0a 3c 49 03 ad 3b
       0.0012477983 0.0023278766 0.008441919 0.0052799326
000060 84 4f df 3b 28 6b db 3b ae 08 8d 3b 93 3f df 3b
       0.006814899 0.0066961236 0.004304013 0.0068129986
000070 4c a1 ca 3b 9d b9 84 3b 97 68 ba 3b dd e5 81 3b
       0.006183779 0.004050447 0.0056887376 0.0039641694
000080 bb 81 11 3c ce cf 3d 3b 70 5e 02 3c 80 11 2d 3b
       0.008881028 0.0028962973 0.007957086 0.0026408136
000090 b7 97 b3 3b 5d 46 09 3c 9c a5 92 3b 27 af f3 3b
       0.0054807323 0.008378592 0.0044753086 0.0074366513
0000a0 84 ba 81 3b b9 6a 84 3b 48 44 81 3b 44 62 47 3b
       0.003959002 0.0040410426 0.0039449073 0.003042356
0000b0 88 62 92 3c 0e 3c 30 3c 0e 31 27 3c dc 04 ee 3b
       0.017869249 0.010756506 0.010204567 0.007263763
0000c0 1e 61 1d 3c 9c 4f e1 3b ea 2f 24 3c 37 8a 52 3c
       0.009605674 0.0068759453 0.010021189 0.012850336
0000d0 7b c2 ec 3b 14 72 85 3b ab 73 89 3b e4 c1 5f 3b
       0.0072253323 0.004072437 0.004194697 0.0034142667
0000e0 8e 88 bf 3b ca c8 82 3b 80 9d c2 3b a5 bf 05 3b
       0.005845136 0.003991221 0.0059391856 0.0020408418
0000f0 54 26 ab 3b ee a5 ee 3a a6 50 d6 3b 86 51 35 3b
       0.005223075 0.001820741 0.0065403758 0.0027667

network.6.running_var f4 [64]
000000 7a 1a 74 39 8f 58 c6 39 ea 76 9c 38 1a 1b cb 39
       0.00023279517 0.00037831484 7.460809e-05 0.0003873937
000010 87 a4 57 38 ae 4d b7 38 bb 32 95 38 32 0b 9b 39
       5.1413223e-05 8.740589e-05 7.114323e-05 0.00029572245
000020 31 10 00 39 82 eb 64 38 fe 3a 70 39 0f ee a8 38
       0.00012213063 5.457877e-05 0.0002291016 8.055206e-05
000030 32 68 8d 39 95 99 81 38 8f f8 ca 38 a9 61 0e 39
       0.00026971247 6.179806e-05 9.678408e-05 0.00013578557
000040 7c e2 dd 39 1f 5b b9 38 3b cf 45 39 63 1e 62 39
       0.0004232115 8.83846e-05 0.00018864583 0.0002156436
000050 9b 87 54 38 fe 5d 59 38 40 89 91 39 70 77 31 39
       5.067103e-05 5.182437e-05 0.00027758814 0.0001692453
000060 82 c2 27 39 29 fc 1b 39 82 44 9f 38 8b 85 19 39
       0.00015998821 0.00014875889 7.5944714e-05 0.00014640966
000070 04 eb 04 39 44 d5 a5 38 30 1f 29 39 b2 dd 76 38
       0.00012676051 7.907537e-05 0.00016128714 5.885744e-05
000080 1e b5 9a 39 93 13 c9 38 06 b8 8b 39 4d 5d 57 38
       0.00029508112 9.588073e-05 0.00026649254 5.1346888e-05
000090 fa 55 80 38 d5 44 97 39 0f 55 6d 38 17 ff 64 39
       6.11953e-05 0.00028852248 5.658442e-05 0.00021838803
0000a0 27 7c 8c 38 42 78 4e 38 2e ed b5 38 0a e7 a8 38
       6.6988454e-05 4.9226226e-05 8.674931e-05 8.053899e-05
0000b0 03 4b e0 39 1d 71 03 3a ec 59 b3 39 fa f5 4d 39
       0.00042780497 0.00050141086 0.00034208538 0.00019641957
0000c0 7f 6b 91 39 9f 5f bf 38 d0 92 c4 39 94 61 01 3a
       0.00027736646 9.1254005e-05 0.00037493417 0.00049355
0000d0 2e ae 11 39 91 bd ae 38 e9 4f ad 38 63 76 51 38
       0.00013893165 8.332276e-05 8.264167e-05 4.993974e-05
0000e0 90 b3 cc 38 ec 9c 03 39 3f 46 22 39 39 27 1f 38
       9.760924e-05 0.00012551591 0.00015475693 3.7945083e-05
0000f0 a5 be 5a 38 2b 8d 19 38 c9 63 a5 38 cf 79 0d 39
       5.21528e-05 3.6609516e-05 7.8863995e-05 0.00013492185

network.8.weight f4 [32, 64]
000000 fb 55 1e 3d a3 9f d9 bc 19 47 62 bb af 74 1f bd
       0.038656216 -0.026565379 -0.003452724 -0.038929638
000010 e8 a8 88 3b 0c 1c 69 3c 7f 90 3e bc 23 2b f6 bc
       0.004170526 0.014227878 -0.01163113 -0.030049866
000020 81 ac 9c 3c cf be 09 bc cf ba fe ba 7e 7e 76 3c
       0.019125225 -0.008407309 -0.0019434335 0.0150448065
000030 48 ea aa 3b 8f 22 c1 bb bf 96 ef 3a 82 5c 1d 3c
       0.005215917 -0.0058940123 0.0018279179 0.009604575
000040 08 fd 27 3d 3d 3b e0 bc 5c 8f cc bc be 0e a6 3a
       0.041012794 -0.027371997 -0.024970703 0.0012669188
000050 5c 54 3b 3c 1e 83 73 bc 1e e1 2d 3d 3e 46 d6 3c
       0.011433687 -0.014862804 0.042451017 0.026156541
000060 0c 37 d5 bc 3b 8f 8b 3c da 8c 33 bc 72 96 c7 3c
       -0.026027225 0.017036071 -0.010958875 0.02436373
000070 c0 60 09 3d 22 1b 9f bc db 53 fe bc fe 36 e0 bc
       0.033539534 -0.019422118 -0.031045845 -0.027369972
000080 92 44 85 bd f1 32 1b 3c f8 39 10 bd 54 72 bf bc
       -0.065072194 0.009472595 -0.035211533 -0.023369946
000090 50 e3 57 3b ae e1 0d 3d 85 18 9f bc d2 54 58 ba
       0.0032941885 0.034639053 -0.019420872 -0.00082523853
0000a0 b0 ea d4 bc 77 22 95 ba 72 6b 3b bd 9c 4b 77 bd
       -0.025990814 -0.0011378069 -0.045756765 -0.06037484
0000b0 54 e3 9a bd d9 6b 2c 3d 04 0b fb bc 9c 15 2e 3b
       -0.07562891 0.04209504 -0.030644901 0.0026563173
0000c0 9a 17 03 bd fc 5e 0e 3b 4c 93 d4 3c 19 83 80 bc
       -0.03200493 0.0021724096 0.025949143 -0.015687512
0000d0 57 8f 06 bd 51 b0 52 3c 69 78 cc bb 1a 30 ad bc
       -0.032851543 0.01285942 -0.00623994 -0.0211411
0000e0 dc a2 b3 bc 23 b7 68 bd 4d 72 51 bb f8 b5 11 bc
       -0.021928243 -0.056815278 -0.0031958998 -0.008893482
0000f0 6c 1c fb ba b3 d8 76 bd b6 a8 94 bb d4 b4 6e bd
       -0.0019158251 -0.060265254 -0.0045367135 -0.05827792
000100 2c 33 6f bb 4d 6a 38 bd 10 6d 0f bd 1f 4e 33 bd
       -0.0036499007 -0.04502325 -0.03501612 -0.043775674
000110 ec b9 86 3b 0a 7e c2 3a 81 75 f9 3a 65 44 b9 bb
       0.004111519 0.0014838588 0.0019032211 -0.005653905
000120 68 cf 8b 3a 37 ab 31 3b 63 f1 97 bd b6 bf 0c 3b
       0.001066667 0.0027110109 -0.07419088 0.0021476573
000130 c4 6a e1 3b 62 36 a1 ba ab c5 2b ba 4d dd b3 39
       0.0068791825 -0.0012299533 -0.0006552587 0.00034306422
000140 8c c2 aa 3b 64 e1 35 bc 8a e1 93 bd 8e e7 ff bb
       0.00521118 -0.011101101 -0.072207525 -0.007809586
000150 05 84 15 bc d3 73 df bc 58 85 10 bc 8d 0e d3 bb
       -0.009125714 -0.027276909 -0.008820854 -0.0064409436
000160 e1 11 c9 bb 30 49 54 bb 44 f5 61 bd c2 1c be bc
       -0.0061361645 -0.0032392256 -0.055165544 -0.023207072
000170 e7 f2 d6 3b cf bf 83 ba ae 93 ad bb 61 10 4d bd
       0.006559718 -0.001005167 -0.005297146 -0.05006445
000180 8f dc 35 3b 0c af ed ba fc 76 bd b8 d9 bc 35 bd
       0.0027749871 -0.0018133833 -9.034385e-05 -0.044369552
000190 53 03 4b bb 02 2d 8c bb 27 70 9e 3b 1d 98 65 bc
       -0.0030977323 -0.0042778263 0.004835147 -0.014013317
0001a0 39 bf 07 bd d7 a4 1c bb 06 5b 0d bd 07 fb 13 bb
       -0.03314135 -0.0023901963 -0.034510635 -0.0022580044
0001b0 16 63 7e bb 96 58 fc bb c1 f1 8f 3b 83 55 8e bd
       -0.0038816384 -0.00770099 0.004392833 -0.06949904
0001c0 c6 d3 3a bb 64 14 91 ba 5b c8 34 bd 8c d9 04 b9
       -0.0028507574 -0.0011068699 -0.044136386 -0.00012669544
0001d0 de b6 4b bd e6 32 71 39 06 01 0a 3b 02 fa 5f bd
       -0.049734943 0.00023002512 0.002105774 -0.054681785
0001e0 c7 a2 ae bb 30 6d e3 b9 0b 00 b9 bb be 90 2e bd
       -0.005329463 -0.00043378165 -0.005645757 -0.042618506
0001f0 26 12 0f bc fb 24 fc bc 47 18 72 3b ad 11 d2 bb
       -0.008732354 -0.030779352 0.003694074 -0.0064107985
000200 09 79 60 bc 79 e4 26 3b c7 06 38 bd 3b bd 44 ba
       -0.013700732 0.002546577 -0.04492834 -0.0007505004
000210 fb 86 43 bd 4b c9 91 bb b7 e5 35 bb 46 47 80 3b
       -0.04773615 -0.004449045 -0.002775533 0.0039147465
000220 a9 b4 72 3a 61 0e 99 bb 76 4b 1b bd 1b 0b 44 bc
       0.0009258488 -0.0046709036 -0.037913762 -0.011965538
000230 4a b4 6d bd aa fd 04 3c 01 52 c7 3a cc d2 12 bd
       -0.058033265 0.008117119 0.0015206934 -0.035845563
000240 cd 84 98 bc 75 16 18 39 2e 48 52 3a eb 97 4b 3b
       -0.018618012 0.00014504216 0.000802162 0.0031065892
000250 07 b3 78 bc 8f fa ac bc 9e c2 84 3b e8 a1 8d 3b
       -0.015179402 -0.02111557 0.0040515205 0.0043222792
000260 60 ea f8 3a a3 20 83 bd 8f c3 ca ba e0 19 cf 3b
       0.0018990748 -0.06402709 -0.0015469658 0.006320223
000270 1b 7c 5c bd 5b ec 4b bb 38 64 b0 bb f1 f4 49 3b
       -0.053829294 -0.003111622 -0.0053830408 0.0030816162
000280 ed 38 49 bd b1 64 23 3b 61 0d bc bb b3 7e 34 3b
       -0.049126554 0.0024931843 -0.0057388996 0.002754134
000290 fd 89 17 bc 4c 18 5a bd d4 bb 93 3b ea 75 c2 b9
       -0.009249208 -0.053245828 0.004508475 -0.00037090416
0002a0 b4 c8 6f bb 1f dc 23 bd 04 8d ea 3b 4e f8 4b bd
       -0.0036588134 -0.040004846 0.0071579237 -0.04979735
0002b0 be b6 47 3c 43 36 a7 bc dd 52 fc bc 73 54 26 bd
       0.012189565 -0.020411616 -0.030801231 -0.04060788
0002c0 b8 ea 93 bc 92 68 43 3a 9d a2 05 3b 0a f0 0c bd
       -0.018056259 0.0007454242 0.0020391115 -0.034408607
0002d0 0d 81 1b bb 74 37 96 bb 73 df 36 bd b5 cd a1 3b
       -0.0023728043 -0.0045842472 -0.04464669 0.0049378523
0002e0 0f a0 e8 3b 16 5a db ba 28 ea 80 bd ac 1a 1c b9
       0.0070991586 -0.0016735222 -0.06294662 -0.00014887255
0002f0 06 19 ab 3b 73 ae d1 bc 72 f9 11 bb 9d fe be bc
       0.005221489 -0.02559588 -0.0022273925 -0.023314768
000300 08 c5 30 3a 3a ff 46 3a 2d dd f1 39 7c ca 43 bb
       0.0006743227 0.00075911323 0.0004613189 -0.0029875329
000310 71 e6 06 bc c7 5b d0 b8 2c f2 72 bd a5 59 29 38
       -0.008233652 -9.935308e-05 -0.059312984 4.0376228e-05
000320 b3 28 20 3b 89 c0 5c bd 22 b4 88 bd 19 f1 07 3b
       0.002443832 -0.053894553 -0.066749826 0.002074307
000330 fb 4b 86 bc 2c 17 e3 3a 1c 05 10 bb 2d d4 5b 3b
       -0.016393652 0.0017325631 -0.0021975702 0.0033543215
000340 41 72 dd bb cd a2 0c bb 07 56 66 bd 22 75 64 bd
       -0.006758005 -0.0021459342 -0.056234386 -0.05577577
000350 48 6a 96 bc 8b c7 82 3a 57 30 37 bc a7 da 57 bc
       -0.018361226 0.0009977681 -0.011180959 -0.013174689
000360 82 54 fb ba ea d2 51 3b 72 25 89 3b 15 b9 9f bc
       -0.0019174966 0.0032016584 0.004185372 -0.019497434
000370 22 bb 8f 3a 17 39 06 bd 1e eb 46 bd b4 ce 27 3a
       0.0010965804 -0.03276929 -0.04856407 0.00064013456
000380 28 27 30 bc 6e cb 08 bc f2 9d 76 3a d8 40 94 3b
       -0.010751523 -0.008349283 0.0009407691 0.0045243315
000390 a6 80 b7 3b 63 74 f7 bb fc b7 8e bd 60 a3 58 bd
       0.005600053 -0.007551716 -0.06968686 -0.05289018
0003a0 9f 8f 52 bd db 6d 86 bb b6 6f 72 bb 8a 67 51 bd
       -0.0514065 -0.0041024513 -0.0036992854 -0.051124133
0003b0 4e da 37 bc 71 97 17 bb 70 2d af bb 67 4f 67 bd
       -0.0112214815 -0.0023131038 -0.0053459927 -0.05647221
0003c0 9a fb 78 bb 59 32 1c ba 41 91 8d bb fe ed f2 bb
       -0.0037991763 -0.000595843 -0.004320294 -0.007413625
0003d0 f1 e8 df ba 84 1f f4 ba 93 15 eb ba f6 42 c4 38
       -0.0017082972 -0.0018625115 -0.0017935507 9.358481e-05
0003e0 28 e2 40 bd 47 15 3a bc 31 70 18 ba 15 fc 84 ba
       -0.04709068 -0.011357612 -0.00058150577 -0.0010145927
0003f0 90 e2 83 3b 38 ff 0f bd 65 aa 4f 3b e8 33 f0 bb
       0.004024811 -0.035155505 0.0031687256 -0.0073304065

network.8.bias f4 [32]
000000 83 ff 64 3c 73 0b b1 3c 41 c3 69 3c b2 e4 cd 3c
       0.013976934 0.021611905 0.014267744 0.025133464
000010 4b a1 bd 3c 55 d0 af 3c cf 77 93 3c a2 99 1e 3c
       0.0231482 0.021461645 0.018001465 0.009680184
000020 c6 f3 55 3c 57 13 8e 3d 06 e4 0a 3d db c3 cb 3c
       0.013058608 0.069372825 0.033908866 0.024873665
000030 17 20 da 3c 28 f1 ec 3c 50 ad d8 3c 44 a2 f3 3c
       0.02662663 0.028923586 0.02644983 0.02974046
000040 0b 72 d2 3c f4 9f dd 3c 25 4a c2 3c d5 ae 9e 3c
       0.025689146 0.02705381 0.023716995 0.019370476
000050 4a 5b d1 3c 86 75 d4 3c dd 84 b8 3c 9c ea 98 3c
       0.025556225 0.025934946 0.022524292 0.018666558
000060 fa 56 db 3c dd c4 a3 3c 32 ed f3 3c 38 3c ac 3c
       0.026774872 0.019991333 0.02977619 0.021024808
000070 06 28 98 3d 16 68 d7 3c 0e ff d0 3c bd 4f 96 3c
       0.07429509 0.02629475 0.025512245 0.018348569
