models/mlp_multiclass_crossentropy20250902_173425.pth (torch, 81762 bytes, 21 tensors)

network.0.weight f4 [128, 48]
0	0x3a180972	0.00057997473
1	0x3b0b8678	0.0021289866
2	0x3ac61c12	0.0015114567
3	0x39d92863	0.00041419556
4	0x3ad02b8b	0.0015882117
5	0xb8494010	-4.7981797e-05
6	0xb996c926	-0.00028760097
7	0x3afce8ab	0.0019295415
8	0x3a016e8c	0.0004937432
9	0xba7d41b4	-0.00096609746
10	0x3aad3369	0.0013214174
11	0xbac6eb96	-0.0015176411
12	0x3ad04242	0.0015888887
13	0x3affe038	0.0019521778
14	0x3a3e6a9e	0.0007263812
15	0x3a442b04	0.00074832165
16	0x3aaf3262	0.0013366456
17	0x3a6ad850	0.00089586247
18	0x38b854e0	8.789613e-05
19	0xb92ece9f	-0.00016670905
20	0x39e6ed46	0.000440458
21	0x3ae76ca1	0.0017656275
22	0x3a99ca74	0.0011733309
23	0x39f7eaac	0.00047286355
24	0xb9a870f3	-0.0003212761
25	0x3a57e420	0.00082355924
26	0x39f1d109	0.00046122845
27	0xba482719	-0.00076352205
28	0x39b178e8	0.00033850153
29	0x398e4871	0.00027138324
30	0x3ab47b4a	0.0013769653
31	0x39b2eb60	0.00034126174
32	0x3a20fa10	0.0006140778
33	0x386fb5f6	5.7151505e-05
34	0xba278322	-0.0006390085
35	0x3a9b7239	0.0011859603
36	0x3a2670fc	0.00063492334
37	0xb9c5bc90	-0.00037715258
38	0x3954b0bd	0.00020283736
39	0x3a146d79	0.00056620647
40	0x39680ed4	0.00022130768
41	0xb9771875	-0.00023564867
42	0x3a197a43	0.0005854705
43	0xbad00067	-0.001586926
44	0x39c5beba	0.0003771687
45	0x38898cc1	6.5588865e-05
46	0xb989dc5f	-0.00026294866
47	0x3908503a	0.00012999857
48	0x3b5fe8c0	0.003416583
49	0x38b790dc	8.753102e-05
50	0xbc1813e6	-0.009282088
51	0x3b7442ea	0.003727133
52	0x3b811878	0.0039396845
53	0x3aa4d8cf	0.0012576821
54	0xbcb516f0	-0.022105664
55	0x3aa81d00	0.0012826025
56	0x3b08e62c	0.0020889146
57	0x3b240bce	0.002503145
58	0x3cacbe76	0.021086913
59	0xbc28a4e0	-0.0102932155
60	0xbc3d6d1e	-0.01156166
61	0x3c143d35	0.009047796
62	0x3c992779	0.01869558
63	0xbc0fc1fa	-0.008774275
64	0x3c5f7d61	0.0136407325
65	0xbb4ef870	-0.0031581186
66	0x3cc6f666	0.024287414
67	0x3c572117	0.013130448
68	0x3a96b119	0.0011496871
69	0x3a3c8bd2	0.0007192466
70	0xbc77a02e	-0.015113873
71	0xbb5d5d74	-0.0033777626
72	0x3b27b405	0.0025589478
73	0xbc054cb1	-0.00813596
74	0x3c19df2c	0.009391587
75	0x3c02490e	0.007951988
76	0xbcb0df8c	-0.02159097
77	0x3c028b6d	0.007967812
78	0xbc2c9d94	-0.010535616
79	0x3c4cd217	0.012501261
80	0x3cd9b3b8	0.026574954
81	0xba2f4e7a	-0.0006687414
82	0xbb19bc8d	-0.0023458332
83	0xbb915aba	-0.0044358643
84	0xbc4b41cb	-0.012405823
85	0xbbce02f6	-0.006286974
86	0x3d34d45f	0.044147845
87	0x3cc0ba0f	0.02352622
88	0xbbfcc1d9	-0.007713538
89	0xbc875543	-0.016520148
90	0xba7042ff	-0.00091652566
91	0xbcf4c96a	-0.029881198
92	0xbb2e81e6	-0.0026627718
93	0xbb67f8f4	-0.003539619
94	0x3ba9fdd1	0.005187728
95	0xbb288194	-0.0025712
96	0xbb303ed8	-0.0026892927
97	0x3bda066c	0.0066535976
98	0xbbe652be	-0.0070289066
99	0x3adbd5e8	0.0016772123
100	0xbc6872c8	-0.014187522
101	0xbcca8b9c	-0.024724774
102	0xbc23bb3a	-0.009993369
103	0x3bedbe2e	0.007255337
104	0xbbd55a09	-0.006510977
105	0xba692ba5	-0.0008894748
106	0xbbb61d55	-0.005557696
107	0x3c460aef	0.012087568
108	0x3bdd5196	0.0067541106
109	0xbc170de6	-0.009219622
110	0xbcaf81bd	-0.021424169
111	0x3a36d6b6	0.00069747434
112	0x3cfd984e	0.030956414
113	0xbc527c1a	-0.012846971
114	0xbbf29c60	-0.0074038953
115	0x3c4f7b5f	0.012663691
116	0x3c8c3bf5	0.017118433
117	0xbba214b5	-0.004946316
118	0xbb936450	-0.004498042
119	0xb89fb42b	-7.61527e-05
120	0xbc1b00aa	-0.009460608
121	0xbc4600b8	-0.012085132
122	0xbc46ebc3	-0.012141171
123	0xbb075c30	-0.0020654313
124	0x3bfe41e4	0.0077593196
125	0xbb951ff9	-0.0045509306
126	0xbb8c3804	-0.0042791385
127	0xbc2d7e7c	-0.010589238
128	0x3c86a50c	0.016436122
129	0xbccf2896	-0.025287908
130	0xbab1074d	-0.0013506204
131	0xbb41ceea	-0.0029572793
132	0xbb8da0fc	-0.0043221693
133	0xb9d9c0bc	-0.00041533064
134	0x3c6d26df	0.0144746
135	0x3b804511	0.0039144834
136	0xbd239dca	-0.0399454
137	0xbd0b5ec3	-0.03402592
138	0xbca93725	-0.020656178
139	0x3d206c00	0.039165497
140	0xbbbc3da1	-0.0057446514
141	0xbc1b68a4	-0.0094853975
142	0xbb2a400c	-0.0025978116
143	0x3a4b662e	0.00077590614
144	0x3d65cfae	0.056106262
145	0xbb5a68c3	-0.0033326603
146	0xbc0fbbc5	-0.008772795
147	0x3a560dc8	0.0008165506
148	0xbae604c6	-0.001754903
149	0x39b9d35a	0.0003544342
150	0xbd8e0bb6	-0.069358274
151	0xbc95f9c8	-0.018307582
152	0xbc08213b	-0.008308704
153	0x3b0a1efd	0.00210756
154	0xbcf71dd6	-0.030165594
155	0xbb881a91	-0.0041535576
156	0xbc67c55f	-0.014146178
157	0xbcb69a8b	-0.022290489
158	0xbc74f34f	-0.014950587
159	0xbb18a34c	-0.0023290692
160	0xbc52b4a7	-0.012860454
161	0xbc993b3d	-0.018705005
162	0xbcf0bee5	-0.0293879
163	0xbba2cd5a	-0.0049683275
164	0xbc82749e	-0.015924748
165	0xbc3f47fd	-0.011674878
166	0xbcbffd6f	-0.023436276
167	0xbb167f06	-0.0022963895
168	0xbba674fb	-0.005079863
169	0xbc7338aa	-0.014845053
170	0xbb932650	-0.004490651
171	0xbbca2ce9	-0.0061699045
172	0xbc0d86ac	-0.008638065
173	0xbbbe4eb1	-0.0058077206
174	0xbcb440a6	-0.022003483
175	0xbb802de9	-0.003911723
176	0x3d5a88a0	0.053352952
177	0xb91747e3	-0.00014427262
178	0x3abe3b92	0.0014513603
179	0xbc2047ce	-0.009782745
180	0xbb110850	-0.0022130199
181	0xba65ff93	-0.000877374
182	0xbb5f0c4a	-0.0034034424
183	0x3bb7106d	0.005586675
184	0x3ad05ba0	0.0015896447
185	0x3c89137b	0.016732922
186	0xbc1e8560	-0.009675354
187	0xbc24934e	-0.010044886
188	0xbb1c96d2	-0.0023893607
189	0xbb62c1cf	-0.0034600382
190	0xba0af547	-0.00053008314
191	0x3b804efb	0.003915665
192	0x3c4b0e89	0.012393602
193	0x3b3e9ac6	0.0029083951
194	0x3a8cf2b4	0.0010753484
195	0x3b8231c4	0.0039732177
196	0x3bf544fa	0.0074850293
197	0x3b16fd0b	0.002303901
198	0xbc0ba835	-0.00852399
199	0xbbc49f46	-0.006000432
200	0xbbfcece3	-0.007718669
201	0xb9936bf3	-0.00028118453
202	0xbc2743a4	-0.010208998
203	0xbd282c06	-0.04105761
204	0xbb91decb	-0.004451608
205	0xba492680	-0.00076732785
206	0x3bb0c4dd	0.0053945617
207	0x3b20fddd	0.0024565377
208	0xba1667b4	-0.0005737499
209	0x3b0b9542	0.0021298681
210	0x3cd1139d	0.025522048
211	0x3ca7ea01	0.020497324
212	0xbba46c3b	-0.005017785
213	0xbac1b3a2	-0.0014778266
214	0xbb03b4df	-0.0020096821
215	0xbbfdc0d0	-0.0077439323
216	0xb9bdbc9f	-0.00036189423
217	0xbc32894b	-0.010896991
218	0x3aad43a8	0.0013219016
219	0xbb81c187	-0.003959838
220	0x3c1bedfd	0.00951719
221	0xbb2a57d1	-0.0025992284
222	0xba63cc28	-0.00086897844
223	0xb91e9325	-0.0001512287
224	0xba011145	-0.0004923533
225	0xba81219d	-0.0009851936
226	0x3b599122	0.0033198078
227	0x3b718b0c	0.003685656
228	0x3c107ce2	0.008818837
229	0x3ac310dc	0.0014882344
230	0xbc62f49a	-0.013852263
231	0xbbd2c3b8	-0.006432023
232	0xbcdba654	-0.02681271
233	0xbc5571a9	-0.013027587
234	0x3c0da53e	0.008645354
235	0xbd15fb02	-0.036616333
236	0x3b23fe28	0.0025023315
237	0xbaf507e8	-0.0018694373
238	0x3b567f43	0.0032729662
239	0xbbeeb490	-0.0072847083
240	0xbcf7d4b3	-0.03025279
241	0x3b117868	0.0022197012
242	0x3c0834f4	0.008313406
243	0xbc958243	-0.01825059
244	0xbbca068f	-0.0061653326
245	0x3cce7997	0.025204463
246	0x3be258a1	0.006907538
247	0xba83cc8b	-0.0010055465
248	0xbbb35f28	-0.00547399
249	0x3aaa6dfc	0.0013002749
250	0x3aa6ced4	0.0012726435
251	0x3c5eba4a	0.013594219
252	0xbbdf5402	-0.0068154344
253	0xbaa5a23a	-0.0012636848
254	0xbb924f4c	-0.0044650193
255	0x3a278d9b	0.00063916453

network.0.bias f4 [128]
0	0xbafecc02	-0.0019439461
1	0xbc93e748	-0.01805462
2	0xbdc5bc19	-0.096550174
3	0xbd569c64	-0.05239524
4	0xbd7071e3	-0.05870236
5	0xbd583105	-0.052781124
6	0xbdb13339	-0.08652348
7	0xbde4d036	-0.111725256
8	0xbdc1f135	-0.09469835
9	0xbd4c1393	-0.049823355
10	0xbdb1616c	-0.0866116
11	0xbd916898	-0.07100028
12	0xbccd2ed1	-0.025046738
13	0xbab8e861	-0.001410734
14	0xbd99c545	-0.07508329
15	0xbd07889d	-0.03308927
16	0xbd796d83	-0.060895454
17	0xbd9847b3	-0.074355505
18	0xbd81d434	-0.06339303
19	0xbd615dcc	-0.055021092
20	0xbbfef4c7	-0.0077806446
21	0xbe23fb9f	-0.16013955
22	0xbb79675d	-0.0038055994
23	0xbda9ff19	-0.08300609
24	0xbd8bee69	-0.068325825
25	0xbd5ecfbb	-0.054397326
26	0xbd6c72b6	-0.057726584
27	0xbd329a47	-0.04360416
28	0xbd537d9d	-0.051633466
29	0xbd50ee4c	-0.051008508
30	0xbdb75080	-0.08950901
31	0xbe31cdc4	-0.1736365
32	0xbdb3fa2a	-0.087879494
33	0xbd373fe7	-0.044738676
34	0xbdc12502	-0.09430887
35	0xbb27f3a2	-0.0025627394
36	0xbd8cb408	-0.06870276
37	0xbd988747	-0.07447677
38	0xbd9f8249	-0.07788522
39	0xb9ec5008	-0.00045073056
40	0xbcda833b	-0.026673904
41	0xba412cce	-0.0007369042
42	0xbd1c9bf2	-0.03823466
43	0xbd80969f	-0.06278729
44	0xbd40f7c4	-0.047111288
45	0xbd155dfa	-0.036466576
46	0xbdcde505	-0.10053448
47	0x3b8ac5af	0.0042349915
48	0xbd7a0cdb	-0.061047416
49	0xbd9091ae	-0.07059036
50	0xbd67e6b7	-0.05661651
51	0xbc86096e	-0.016361918
52	0xbc249989	-0.010046371
53	0xbd883d4e	-0.06652318
54	0xbd7b969e	-0.061422937
55	0xb94e5c7c	-0.00019680144
56	0xbdc88452	-0.09790863
57	0xbd87bcc5	-0.06627802
58	0xbd76402f	-0.060119804
59	0xbd503f41	-0.050841574
60	0xbcb71502	-0.022348884
61	0xbdd79ec4	-0.10528329
62	0xbd8aedc1	-0.06783629
63	0xbdaca5b1	-0.08430041
64	0xbe261345	-0.16218288
65	0xbaeca757	-0.0018055242
66	0xbe33b97a	-0.17551222
67	0xbd9aaa79	-0.07552046
68	0xbd673493	-0.056446623
69	0xbd6e6ac0	-0.058207273
70	0xbcc2c9be	-0.023777839
71	0xbdd0be0a	-0.10192497
72	0xbd27db9e	-0.040980928
73	0xbab5f535	-0.0013882281
74	0xbde094b2	-0.109658614
75	0xbd40c2d2	-0.047060795
76	0x3b117fc4	0.0022201398
77	0xbcd14d25	-0.02554948
78	0xbd753364	-0.059863463
79	0xbd7c463e	-0.061590426
80	0xba834351	-0.0010014569
81	0xbd8776bd	-0.066144444
82	0xbd7d61f3	-0.06186099
83	0xbd92ca54	-0.07167497
84	0xbda99959	-0.08281202
85	0xbd566df7	-0.052350964
86	0xbd1b396b	-0.037896555
87	0xbd6befc1	-0.057601694
88	0xbd337154	-0.04380925
89	0xbd87f0bb	-0.066377126
90	0xbd0f22e6	-0.03494539
91	0xbde35c6c	-0.111016124
92	0xbc7882bc	-0.015167888
93	0xbcce1a0b	-0.025158903
94	0xbd8c9b33	-0.068655394
95	0xbde9721a	-0.11398716
96	0xbdb99341	-0.090612896
97	0xbd5466cf	-0.05185586
98	0xbdc43149	-0.09579713
99	0xbdc8416c	-0.09778103
100	0xbe09a42c	-0.13441533
101	0xbd8b9ef7	-0.068174295
102	0xbde75756	-0.11295955
103	0xbe32d70c	-0.17464846
104	0xbdb6d9e8	-0.08928281
105	0xbd7a520b	-0.0611134
106	0xbd8ebff1	-0.06970204
107	0x39b8bf31	0.00035237664
108	0x39dfde3c	0.00042699452
109	0xbcb9f16c	-0.022698127
110	0xbd8c07d8	-0.068374336
111	0xbd20d793	-0.039268088
112	0xbd4274f7	-0.047474828
113	0xbd9a7ca2	-0.07543303
114	0x3ab25ad6	0.0013607393
115	0xbdd9ba60	-0.10631251
116	0xbda65b8b	-0.08122929
117	0xbdb70e37	-0.08938258
118	0xbd263604	-0.040578857
119	0xbd8ce7f9	-0.06880183
120	0xbdcf2dba	-0.101161435
121	0xbd8c6c8c	-0.06856641
122	0xbd25ab24	-0.040446416
123	0xbd867bd7	-0.06566589
124	0xbcecd91f	-0.028912125
125	0xbd5cb3f4	-0.053882554
126	0xbd418bec	-0.04725258
127	0xbe0633c3	-0.13105683

network.2.weight f4 [128]
0	0x3a08364f	0.0005196081
1	0x3d12779d	0.035758603
2	0x3d5d09b4	0.05396433
3	0x3d53514f	0.051591214
4	0x3d627bf3	0.05529399
5	0x3d7cf12b	0.061753433
6	0x3d643acd	0.05572014
7	0x3d98c956	0.07460277
8	0x3d7738e2	0.060356982
9	0x3d7ef47d	0.06224488
10	0x3d6c5cf2	0.057705827
11	0x3d388e1a	0.045057394
12	0x3d878885	0.06617836
13	0x3d4cfe84	0.050047413
14	0x3d520ba5	0.051280636
15	0x3d5fd30f	0.05464464
16	0x3d716716	0.0589362
17	0x3d831ea4	0.064023286
18	0x3d54ddcf	0.051969346
19	0x3d84e9d1	0.064899094
20	0x3d2fdaf0	0.042933404
21	0x3d822568	0.06354791
22	0x3d58f398	0.052966684
23	0x3d6c10b2	0.05763311
24	0x3d6cc653	0.057806324
25	0x3d53af5e	0.051680915
26	0x3d57caae	0.052683525
27	0x3d5ef29b	0.054430585
28	0x3d2d8212	0.042360373
29	0x3d855b35	0.06511537
30	0x3d846147	0.06463867
31	0x3d81fd95	0.06347195
32	0x3d80505b	0.062653266
33	0x3d7a19e8	0.061059862
34	0x3d6f6274	0.0584435
35	0x3cea7751	0.028621348
36	0x3d4abf9c	0.04949914
37	0x3d89bf8b	0.06725987
38	0x3d4c3f47	0.049865033
39	0x389f4d40	7.5961e-05
40	0x3dad6348	0.08466202
41	0x39a37090	0.00031173648
42	0x3d3b8234	0.04577847
43	0x3d6db922	0.058037885
44	0x3d2db4da	0.0424088
45	0x3d8a38fa	0.06749149
46	0x3dbd9ac3	0.09258034
47	0x3d1289d0	0.03577596
48	0x3d63b336	0.05559083
49	0x3d73e040	0.059540033
50	0x3d83a873	0.064286135
51	0x3d543f67	0.051818278
52	0x3d341f74	0.04397531
53	0x3d845e1e	0.06463264
54	0x3db6a039	0.08917279
55	0x3906f2a1	0.00012869622
56	0x3dd10d65	0.10207633
57	0x3d62b748	0.055350572
58	0x3d68e03e	0.05685448
59	0x3d538e50	0.05164939
60	0x3d632996	0.05545958
61	0x3d87a80f	0.066238515
62	0x3d6b0407	0.057376888
63	0x3d84a459	0.06476659
64	0x3d9b1d7f	0.07573985
65	0xb88d978a	-6.75163e-05
66	0x3da2570c	0.07926759
67	0x3d57b08c	0.052658603
68	0x3d807ef1	0.06274212
69	0x3d387110	0.0450297
70	0x3d3760e0	0.04477012
71	0x3d88a6de	0.066724524
72	0x3d4085f0	0.047002733
73	0x3d434d23	0.047680985
74	0x3d827c0f	0.063713185
75	0x3d5d528e	0.05403381
76	0x3b2facfa	0.0026805983
77	0x3d4a3479	0.049366448
78	0x3d845d8e	0.06463157
79	0x3d3b562f	0.045736488
80	0xb8923799	-6.9721784e-05
81	0x3d64ed90	0.05589062
82	0x3d6a9058	0.057266563
83	0x3d53fc93	0.051754545
84	0x3d493022	0.04911817
85	0x3d567141	0.0523541
86	0x3d710f52	0.0588525
87	0x3d41aa04	0.04728128
88	0x3d46e54f	0.04855853
89	0x3d7bc5b8	0.061467856
90	0x3d591255	0.052996
91	0x3d533015	0.051559526
92	0x3d505cf3	0.050869893
93	0x3d36ede9	0.044660483
94	0x3d480113	0.04882915
95	0x3df8c376	0.12146656
96	0x3d8336d1	0.0640694
97	0x3d589e85	0.05288555
98	0x3d73092d	0.059334923
99	0x3d4b1524	0.04958071
100	0x3d37f5c9	0.044912133
101	0x3d32983a	0.043602206
102	0x3d5d5051	0.054031674
103	0x3d99a642	0.07502414
104	0x3d706fbf	0.05870032
105	0x3d563604	0.052297607
106	0x3d609cac	0.054836914
107	0x38a1116f	7.6803255e-05
108	0xb8a7f5af	-8.008943e-05
109	0x3d2ffd7e	0.04296636
110	0x3d4c4d31	0.049878303
111	0x3d727bfb	0.05920027
112	0x3d642dc8	0.055707723
113	0x3d759d70	0.059964597
114	0x3b17e736	0.0023178584
115	0x3d8c6d4a	0.06856783
116	0x3d4ed064	0.050491706
117	0x3d3f6254	0.046724632
118	0x3d49fc4c	0.049312875
119	0x3db78854	0.089615494
120	0x3d8ef044	0.06979421
121	0x3d6587fc	0.056037888
122	0x3d3bec41	0.045879606
123	0x3d3e93d3	0.046527695
124	0x3d680512	0.05664546
125	0x3d8d91c7	0.069125704
126	0x3d643389	0.05571321
127	0x3db103c1	0.08643294

network.2.bias f4 [128]
0	0xb91930c0	-0.00014609378
1	0x3bb47a32	0.005507731
2	0xbb4fe830	-0.0031724088
3	0x3c30881e	0.01077464
4	0x3b7e8cd1	0.0038841257
5	0x3cad5e56	0.021163147
6	0x3c4016b1	0.01172416
7	0xba19b29a	-0.00058631005
8	0x3c3d7af5	0.01156496
9	0x3c8edad5	0.017438332
10	0x3bbc0ec7	0.0057390663
11	0xbba6d30d	-0.005091077
12	0x3ce9c671	0.028537007
13	0x3cad5653	0.021159327
14	0x3c11ff20	0.008910924
15	0x3c75c4aa	0.015000502
16	0x3c7b68ab	0.015344779
17	0x3c47c472	0.012192832
18	0x3be6ff28	0.00704946
19	0x3c6bbb36	0.014387896
20	0x3c37a56c	0.011208873
21	0xbb808710	-0.0039223507
22	0x3cb98192	0.022644792
23	0x3bfbe681	0.0076873903
24	0x3c4394b6	0.011937311
25	0x3c3937d4	0.011304814
26	0x3c30bc52	0.010787087
27	0x3c3e6385	0.011620407
28	0x3b697a1c	0.0035625761
29	0x3ca900ae	0.020630207
30	0x3c4f867f	0.012666344
31	0x3be1d3bc	0.006891696
32	0x3c62c924	0.013841901
33	0x3cb46be6	0.022024106
34	0x3b812080	0.003940642
35	0xb8ca1fc3	-9.638027e-05
36	0x3c0df41d	0.008664158
37	0x3a58f5d7	0.0008276379
38	0x3acc4ce6	0.0015586882
39	0xb99b6df6	-0.0002964583
40	0x3ccaa6e0	0.024737775
41	0x39a4eb9f	0.0003145607
42	0x3b0833ec	0.00207829
43	0x3bb397e0	0.0054807514
44	0x3bef17e6	0.00729655
45	0x3c67226f	0.014107331
46	0x37970145	1.8001194e-05
47	0xba1e9379	-0.0006049197
48	0x3c714990	0.014727011
49	0x3baa37ec	0.0051946547
50	0x3c9cb245	0.019127974
51	0x3c225491	0.0099078575
52	0x3c05b51c	0.008160856
53	0x3b7fe591	0.0039046744
54	0x3cc79ec1	0.024367692
55	0xb9a7e001	-0.00032019618
56	0x3bf0bbb9	0.007346597
57	0x3c1cce85	0.0095707225
58	0x3c46e60c	0.012139808
59	0x3baaf41d	0.005217089
60	0x3c2cfd74	0.010558475
61	0x3c5dd17d	0.013538715
62	0x3bdde97e	0.006772219
63	0x3becbe81	0.0072248583
64	0x3c133ab6	0.008986166
65	0x39223d12	0.00015472274
66	0x3c84c38b	0.016206523
67	0x3c397b28	0.011320867
68	0x3c51e132	0.012810038
69	0x3c1764fd	0.009240386
70	0x3c11dd27	0.0089028245
71	0x3b38445c	0.0028116917
72	0x3c14f02d	0.0090904655
73	0x3c613bbe	0.013747154
74	0x39ab28d5	0.00032646084
75	0x3c5547d0	0.01301761
76	0x3a9bf04f	0.0011897179
77	0x3c36107d	0.01111233
78	0x3c8f1fa2	0.017471138
79	0xba714b02	-0.00092045974
80	0x399819f1	0.00029011027
81	0x3c890d9d	0.016730124
82	0x3c2212ac	0.009892147
83	0x3bf215b6	0.007387842
84	0xb801b058	-3.092023e-05
85	0x3b819567	0.0039545777
86	0x3c91546a	0.017740447
87	0x3bcec497	0.0063100564
88	0x3c020edd	0.007938114
89	0x3c121bc1	0.00891775
90	0x3c465237	0.0121045625
91	0x3bccc5e0	0.0062491745
92	0x3c76d725	0.015065943
93	0x3c5f66be	0.0136353355
94	0x3c5b92c0	0.013401687
95	0x3ab21be6	0.0013588637
96	0x3c570896	0.013124606
97	0x3c0cd7e7	0.008596397
98	0xbc23cebc	-0.00999802
99	0xbbd620da	-0.006534678
100	0xbb879fd2	-0.004138925
101	0xbb823429	-0.003973503
102	0x3bd3ad51	0.00645987
103	0x3b240c2f	0.0025031676
104	0xbbaf8c04	-0.0053572673
105	0x3c68a3b0	0.014199182
106	0x3c2b5ade	0.010458676
107	0xb6fd3b1a	-7.546868e-06
108	0x39cb6ab4	0.00038798677
109	0x3b1fe4b6	0.0024397797
110	0x3a48eba8	0.000766451
111	0x3ca4fb25	0.020139286
112	0x3c2dcc94	0.010607857
113	0x3c609162	0.013706537
114	0x39173ada	0.00014422406
115	0x3c81c39f	0.01584035
116	0x3b79f25e	0.0038138847
117	0x3be2b870	0.0069189593
118	0x3bfe5b94	0.007762382
119	0x3cb7fdff	0.022459982
120	0x3c964155	0.0183417
121	0x3c227426	0.009915387
122	0x3b6e442f	0.0036356559
123	0xbc2cd929	-0.010549822
124	0x3c506708	0.012719877
125	0x3ccc2ed6	0.024924677
126	0x3bec017f	0.007202327
127	0xbac1f028	-0.0014796304

network.2.running_mean f4 [128]
0	0x3b316959	0.0027070849
1	0x3c9f5815	0.01945118
2	0x3a2b7783	0.0006540941
3	0x3c4cf3fe	0.012509344
4	0x3b2577e5	0.0025248465
5	0x3c812b52	0.015767727
6	0x3ca56a01	0.020192148
7	0x393a71ae	0.00017780691
8	0x3c2c227b	0.010506268
9	0x3c80edc3	0.015738374
10	0x3c6bcdad	0.014392299
11	0x3bf578c7	0.0074912044
12	0x3cca1573	0.02466843
13	0x3d0e576e	0.03475135
14	0x3c14d023	0.009082827
15	0x3c71aea2	0.014751108
16	0x3bbd07d2	0.0057687545
17	0x3c343a0f	0.01100017
18	0x3be2385f	0.0069036926
19	0x3bd7269b	0.0065658814
20	0x3cd9b0f3	0.026573634
21	0x3af41037	0.0018620555
22	0x3cdb1291	0.026742252
23	0x3af2d376	0.0018526155
24	0x3c43a5d4	0.011941392
25	0x3c0b714c	0.008510899
26	0x3c3e0aea	0.011599282
27	0x3c9eb5ea	0.019373853
28	0x3be7d410	0.0070748404
29	0x3c86389e	0.016384419
30	0x3bfc5ac0	0.007701248
31	0x3bd2b54a	0.0064303027
32	0x3bcccd60	0.0062500685
33	0x3c83812e	0.016052809
34	0x3b8b373d	0.0042485283
35	0x3cc34d11	0.023840459
36	0x3ba8796f	0.005141429
37	0x3b155f78	0.00227925
38	0x3aeca945	0.0018055817
39	0x39cd6ce6	0.00039181783
40	0x3c5c25ee	0.0134367775
41	0x3a3b8eb5	0.0007154749
42	0x3c2200c3	0.009887877
43	0x3bcb7af6	0.0062097264
44	0x3c7a3167	0.0152705675
45	0x3c9f2405	0.019426355
46	0x38b8f6de	8.819786e-05
47	0x3d075d03	0.033047687
48	0x3c226dac	0.009913843
49	0x3c269c86	0.010169154
50	0x3c2dc989	0.010607132
51	0x3c842fae	0.016136017
52	0x3ccded9a	0.025137711
53	0x3b8f9dca	0.0043828236
54	0x3bed9fed	0.0072517307
55	0x3997fb05	0.00028987988
56	0x3b62c4f8	0.0034602266
57	0x3b4fcfcd	0.0031709552
58	0x3bb1c40f	0.0054249833
59	0x3c1f033f	0.009705364
60	0x3c4eb4f2	0.012616383
61	0x3bcbb262	0.0062163332
62	0x3b629c19	0.0034577905
63	0x3bb597b4	0.005541766
64	0x3b314888	0.0027051289
65	0x39b2a0b0	0.00034070527
66	0x3c3588f2	0.011080014
67	0x3bc6d817	0.0060682404
68	0x3c1e01a9	0.0096439505
69	0x3c6c2479	0.014412993
70	0x3c929065	0.017891118
71	0x3b214d81	0.0024612846
72	0x3c1673f1	0.009182916
73	0x3d033b21	0.03203881
74	0x3a38a53f	0.00070436666
75	0x3c2c852c	0.0105297975
76	0x3c316bb4	0.010828901
77	0x3ca0d676	0.019633513
78	0x3c3134fe	0.010815857
79	0x3b247ebe	0.0025099958
80	0x3a491b29	0.00076715887
81	0x3bd7a1ed	0.0065805824
82	0x3c4bf540	0.012448609
83	0x3c4c492c	0.012468617
84	0x3bf100c3	0.007354827
85	0x3c18db22	0.009329589
86	0x3c482583	0.012215975
87	0x3bf6966b	0.0075252554
88	0x3c2b4f97	0.010455987
89	0x3c075d93	0.008262056
90	0x3c5e8bae	0.013583107
91	0x3c43751b	0.011929776
92	0x3cf5ce8d	0.030005718
93	0x3ca47ad9	0.02007811
94	0x3c9628ac	0.01832994
95	0x39db81b6	0.00041867577
96	0x3c231d05	0.009955649
97	0x3c814b57	0.015782995
98	0x3a3ec458	0.00072771823
99	0x3a8bf3bd	0.0010677498
100	0x3ac5c813	0.0015089534
101	0x3ae59568	0.001751584
102	0x3bfb5bb2	0.007670843
103	0x3a843f7b	0.001008972
104	0x3a35c3ba	0.00069337676
105	0x3c0349b1	0.008013175
106	0x3b9d8523	0.004807131
107	0x3b37ecf8	0.0028064828
108	0x3b044eae	0.0020188498
109	0x3cb5db2d	0.022199238
110	0x3b67e58e	0.0035384628
111	0x3c6fb539	0.014630609
112	0x3c45cf89	0.012073406
113	0x3bcdfa2c	0.0062859263
114	0x3bf48879	0.007462558
115	0x3bf1bfe4	0.0073776115
116	0x3ae76595	0.0017654175
117	0x3b77c747	0.0037807988
118	0x3cadcc38	0.021215543
119	0x3bfecab4	0.007775629
120	0x3be07a54	0.00685052
121	0x3c177a03	0.009245398
122	0x3c7e4eb4	0.015521694
123	0x3afbac25	0.0019201083
124	0x3c8e8d03	0.017401224
125	0x3c5d904e	0.013523174
126	0x3c663b94	0.0140522905
127	0x39d1ed8e	0.00040040578

network.2.running_var f4 [128]
0	0x3914f2ad	0.00014204784
1	0x3a4a0e8f	0.0007707858
2	0x38b6932d	8.70585e-05
3	0x39f4fe69	0.00046728857
4	0x38d0e59c	9.960981e-05
5	0x3adf7d17	0.001705083
6	0x3aa53d7f	0.0012606828
7	0x374cd9fb	1.22101e-05
8	0x39fb639a	0.0004794866
9	0x3a522ae6	0.00080172566
10	0x39f3b569	0.00046483733
11	0x398afd4e	0.00026510138
12	0x3a7bd72a	0.0009606952
13	0x3ab4fcec	0.0013808287
14	0x39c5c471	0.00037721128
15	0x3a5799bf	0.0008224509
16	0x398265e0	0.00024871435
17	0x39f95522	0.0004755641
18	0x396d5f3f	0.00022637563
19	0x39b64594	0.00034765585
20	0x3a87f9c7	0.0010374122
21	0x383e6437	4.5392862e-05
22	0x3a977fe4	0.00115585
23	0x38b22b7c	8.495801e-05
24	0x3a0d43e4	0.00053888396
25	0x399f7125	0.00030411143
26	0x3a21708d	0.0006158434
27	0x3b0ff915	0.0021968533
28	0x39879c31	0.00025865578
29	0x3a4b6798	0.0007759272
30	0x39be58e8	0.00036305864
31	0x3a7df979	0.00096883584
32	0x3a29fc25	0.0006484411
33	0x3a493214	0.0007675004
34	0x39fdaf70	0.00048386632
35	0x3aa431a7	0.0012527005
36	0x39ba4859	0.00035530588
37	0x399e605f	0.0003020791
38	0x3965019e	0.00021839744
39	0x35f56673	1.8283739e-06
40	0x3a8d609f	0.0010786242
41	0x378d9cf1	1.6881591e-05
42	0x3a146eb4	0.0005662248
43	0x394eb187	0.00019711825
44	0x39ecd23f	0.00045170073
45	0x3c20d9a7	0.009817517
46	0x36b6c0d0	5.446469e-06
47	0x3aaad3d8	0.0013033105
48	0x399d79fd	0.00030036262
49	0x39f101cd	0.00045968444
50	0x39ee33c4	0.00045433466
51	0x3b1fa89e	0.0024361978
52	0x3a4b5b21	0.0007757415
53	0x3a9e09a2	0.0012057314
54	0x3a0f28e4	0.000546111
55	0x35bdbfc9	1.4137414e-06
56	0x3a243574	0.00062640687
57	0x392f66ab	0.00016727547
58	0x396c41ef	0.00022531276
59	0x39da7cc6	0.00041673164
60	0x3b6468fc	0.0034852615
61	0x392f97b8	0.0001674582
62	0x392c39fc	0.00016424799
63	0x3adc49e5	0.001680669
64	0x38b447f5	8.596472e-05
65	0x367af3f6	3.7394907e-06
66	0x3b051bd7	0.0020310783
67	0x3941d4e3	0.00018485221
68	0x3a0227d9	0.0004965044
69	0x39de9460	0.00042453688
70	0x3a1193c2	0.00055533287
71	0x38ad17a5	8.253687e-05
72	0x3a011a04	0.0004924836
73	0x3b861c7f	0.0040927525
74	0x38415c24	4.61006e-05
75	0x39d0ed63	0.00039849718
76	0x3938026d	0.00017548511
77	0x3a3b64dd	0.00071485137
78	0x3a42b3c8	0.0007427302
79	0x39444115	0.00018716262
80	0x36e4225f	6.798931e-06
81	0x3980a8c3	0.000245398
82	0x3a27d3e2	0.00064021174
83	0x39ea96d9	0.00044744348
84	0x3985ad92	0.00025497057
85	0x3a9f2619	0.0012142091
86	0x3a532dd6	0.00080558413
87	0x3989fb1d	0.0002631777
88	0x39c89900	0.00038260967
89	0x3a564ea6	0.00081751717
90	0x3a8eb579	0.0010887823
91	0x3afe9a56	0.0019424658
92	0x3acd052a	0.0015641798
93	0x3a68ecce	0.00088853843
94	0x3ab3ee27	0.0013727591
95	0x389b5905	7.407557e-05
96	0x39c35699	0.0003725782
97	0x3a38e426	0.000705304
98	0x39a5d071	0.00031626553
99	0x38308fa5	4.209545e-05
100	0x38abfbb1	8.2007966e-05
101	0x3887bc85	6.472416e-05
102	0x3a48a26e	0.00076535984
103	0x37d0e28b	2.4901025e-05
104	0x38f69630	0.00011758169
105	0x39ab1002	0.00032627588
106	0x39f582e8	0.00046827574
107	0x37832a90	1.5636237e-05
108	0x373d9789	1.130056e-05
109	0x3a632166	0.00086643395
110	0x3a193325	0.0005844108
111	0x3a2539a1	0.0006302838
112	0x39f0159c	0.00045792467
113	0x39be794c	0.00036329997
114	0x39230179	0.0001554544
115	0x39fe68ae	0.00048524648
116	0x384ebd97	4.9290797e-05
117	0x38eb1de4	0.00011211241
118	0x3b9c677e	0.0047730794
119	0x3a240780	0.0006257221
120	0x39c8d2ec	0.00038304122
121	0x39e9c2be	0.00044586317
122	0x3a45ea88	0.00075499015
123	0x38b8b91f	8.808285e-05
124	0x3a8413a8	0.0010076659
125	0x3a04cdf0	0.00050660875
126	0x3a71d269	0.0009224774
127	0x3829a7a0	4.0448853e-05

network.4.weight f4 [64, 128]
0	0xba3d32ee	-0.0007217367
1	0xba6b9a33	-0.0008987516
2	0x3c36a24c	0.011147093
3	0x3c1f327f	0.009716629
4	0xba4273fd	-0.00074177963
5	0xbc23aa86	-0.009989386
6	0xbcc1aad0	-0.02364102
7	0xbc2c44fb	-0.010514493
8	0xbd12e041	-0.035858396
9	0xbb456dbd	-0.0030125224
10	0x3b52f80f	0.0032191311
11	0xba0f4d96	-0.00054665783
12	0xbb17ba4f	-0.002315182
13	0xbc14dcb1	-0.00908582
14	0xbc76deaa	-0.015067736
15	0xbc5141db	-0.012772049
16	0x3ac1ca23	0.0014784973
17	0xbd2c1623	-0.0420133
18	0xbba25daa	-0.0049550133
19	0xbcb9573a	-0.0226246
20	0xbaab3784	-0.001306281
21	0x3c583797	0.013196847
22	0x39c6362e	0.0003780587
23	0x3bfc0145	0.007690581
24	0xbcda3ca7	-0.02664025
25	0xbca6956a	-0.020334918
26	0x3b1b25d6	0.0023673675
27	0x3b9a9203	0.004717113
28	0x3a99583a	0.0011699267
29	0x3acaa997	0.0015461919
30	0x3c181bf5	0.009284009
31	0xbb225909	-0.0024772307
32	0x3a4b196f	0.00077476254
33	0xba084fd2	-0.00051998824
34	0xb90848f4	-0.00012997148
35	0xbbc292e5	-0.0059379213
36	0xbb2f164d	-0.0026716173
37	0x3bb2b9a0	0.005454257
38	0xbbd4b3c8	-0.006491158
39	0x3a1e582b	0.000604036
40	0xba911914	-0.0011070096
41	0x3a573c45	0.000821058
42	0xbc97db14	-0.018537082
43	0x3c1f1518	0.009709619
44	0xbc2acc9f	-0.010424762
45	0x3bb34969	0.0054713977
46	0xbaba04d7	-0.0014192116
47	0xbc320d91	-0.010867492
48	0xbc31434f	-0.01081927
49	0xbc6b5973	-0.014364588
50	0xbcb0cddb	-0.021582535
51	0x3b2efb2a	0.0026699998
52	0xbd0faf02	-0.03507901
53	0x3b75b5bd	0.0037492358
54	0xbb7bcabf	-0.0038420407
55	0x3a137a8a	0.0005625865
56	0xbb671ce7	-0.003526503
57	0xbc50c2c1	-0.012741745
58	0x3c133ba4	0.008986387
59	0xbce35532	-0.027750585
60	0x3c370878	0.011171453
61	0xbcb7c9ca	-0.022435088
62	0xbb6320ea	-0.003465707
63	0xbb9fad34	-0.0048729423
64	0xbc3aa199	-0.011391067
65	0x396d863b	0.00022652086
66	0x3ab61495	0.0013891632
67	0xbb5a0457	-0.0033266747
68	0xbb2efd64	-0.0026701326
69	0x3b98b572	0.004660302
70	0x3bbafabd	0.00570616
71	0xbba9e9c1	-0.0051853363
72	0xbb75893c	-0.0037465831
73	0x38e05c82	0.00010698383
74	0xbc6fed8c	-0.014644038
75	0xbc83569f	-0.016032515
76	0xbac29198	-0.0014844416
77	0xbd2794c9	-0.040913377
78	0xba60c80e	-0.00085747323
79	0x3b41ac0e	0.0029552015
80	0xba431462	-0.0007441697
81	0xbb276566	-0.0025542616
82	0xbc85ddc0	-0.01634109
83	0xbb262fc5	-0.0025358063
84	0xbcd3211d	-0.025772626
85	0xbcdb43da	-0.026765753
86	0x3c342943	0.010996166
87	0x3b5a67f1	0.0033326114
88	0xbd11a8b8	-0.035561293
89	0x3ba6b863	0.0050878986
90	0x3b9f3c8b	0.004859512
91	0xbc1f0238	-0.009705119
92	0xbc73c22f	-0.01487784
93	0xba908e46	-0.0011028729
94	0xbd0ae334	-0.033908084
95	0xbc035755	-0.008016427
96	0xbc9ed71e	-0.019389685
97	0x3c654cd4	0.013995368
98	0xbbe46a86	-0.0069707064
99	0xbbb8cbc3	-0.0056395247
100	0xbbe595d8	-0.007006388
101	0x3a9aa686	0.0011798895
102	0xbb429f62	-0.002969705
103	0x3c9b66e1	0.018969955
104	0xbbd599e8	-0.006518591
105	0xbbbd2858	-0.0057726316
106	0xbbae094b	-0.0053111664
107	0x39e8eb5c	0.00044425845
108	0xb94a2b1b	-0.00019280279
109	0xbc4fee5a	-0.012691105
110	0xbc21aa0f	-0.009867205
111	0x3b802b17	0.0039113867
112	0xbcb09592	-0.021555696
113	0x3c443ceb	0.011977415
114	0xbb982842	-0.004643471
115	0x3c0818a6	0.008306658
116	0x3c8dc7b6	0.017307144
117	0x3c4cb357	0.01249393
118	0x3c187110	0.0093043
119	0x39b7871b	0.0003500514
120	0xba971bf0	-0.0011528712
121	0x36a25ba2	4.8386437e-06
122	0xbb16d76d	-0.0023016587
123	0x3a556018	0.0008139624
124	0xbd236415	-0.039890368
125	0xbba49824	-0.0050230194
126	0x3b573c5c	0.0032842373
127	0x3c5333fc	0.012890812
128	0x3a31b07e	0.00067783135
129	0x3b133629	0.0022462702
130	0xbc59d490	-0.013295308
131	0x3b80a4a8	0.0039258786
132	0x3bf88b0d	0.0075849355
133	0xbcf6f122	-0.030144278
134	0xbc42fd88	-0.011901267
135	0xbba6e728	-0.005093474
136	0x3a585c0e	0.00082534633
137	0x3ba6b89a	0.005087924
138	0xba62073f	-0.00086222956
139	0xbc40fb0d	-0.011778605
140	0x3b12bb3d	0.0022389435
141	0x3b37760b	0.0027993943
142	0xbcfd6c80	-0.030935526
143	0x3bd3dc60	0.0064654797
144	0xbcfb3e31	-0.030669304
145	0x3951fc71	0.00020025835
146	0x3b35700c	0.0027685193
147	0xba0e43a4	-0.00054269494
148	0xbbd68357	-0.0065464186
149	0x3b693b72	0.003558841
150	0xbbb54d57	-0.0055329013
151	0x3b06a6c0	0.0020546168
152	0xbc0e7323	-0.008694443
153	0x3c13679d	0.008996871
154	0x3bda8db3	0.006669724
155	0xbb73859c	-0.0037158495
156	0xbba42149	-0.0050088507
157	0x3b8c72f5	0.004286165
158	0xbd3cd497	-0.04610118
159	0xba696b18	-0.0008904203
160	0xbce37452	-0.027765427
161	0xbb87fa2c	-0.004149696
162	0x3b3295a2	0.0027249833
163	0xbaab0e5d	-0.0013050545
164	0x3bb79c6b	0.0056033633
165	0x39d6f2f8	0.00040998287
166	0xbbfb069c	-0.0076607
167	0x39f28312	0.00046255492
168	0xbca5aadb	-0.020223072
169	0xba2caa60	-0.0006586667
170	0xbb414e23	-0.0029496036
171	0xbb982977	-0.004643615
172	0x3c9de831	0.019275757
173	0xbd59b2f7	-0.05314919
174	0xbc4a4990	-0.01234664
175	0x3c85355a	0.016260792
176	0x3c3608bb	0.01111048
177	0xbad46ecf	-0.001620734
178	0xb936b7b4	-0.00017425307
179	0x3c1eb8f6	0.009687653
180	0x3b345d38	0.0027521383
181	0x3be66917	0.0070315707
182	0xbc97b6ba	-0.018519748
183	0x3a2f8c12	0.00066965923
184	0xbc2aba1d	-0.010420349
185	0x3b2b405b	0.0026130888
186	0x3bf1debf	0.0073812897
187	0x3c7503ae	0.014954491
188	0x39b4eea5	0.0003451008
189	0x3bc78937	0.0060893553
190	0xbbbf5739	-0.005839255
191	0x3bc93976	0.006140883
192	0xbc64a22a	-0.013954679
193	0x3a291e85	0.0006451386
194	0x3bebaec3	0.007192464
195	0x3b0fdc10	0.0021951236
196	0x3a8c0eba	0.0010685541
197	0x3b898b8c	0.0041975435
198	0xbb93008b	-0.0044861487
199	0x3c01339c	0.00788584
200	0xbabdb373	-0.0014473036
201	0x3aba8ba9	0.0014232296
202	0x3bd613c4	0.006533118
203	0x3c1c6ede	0.009547917
204	0x39aa96a5	0.00032537166
205	0x3c43e2f3	0.011955964
206	0xbb3009b2	-0.0026861248
207	0xbc38e7b6	-0.011285713
208	0xba748cfa	-0.00093288685
209	0x3bda6035	0.006664301
210	0x3c8fb134	0.017540552
211	0xbbc4fe21	-0.00601174
212	0x3c206b68	0.009791233
213	0x3b19dcd2	0.0023477566
214	0xbc448c7d	-0.011996386
215	0xbcf20153	-0.029541647
216	0xbca32c5e	-0.019918617
217	0xbca90d1b	-0.020636132
218	0xbc0f2a5f	-0.008738129
219	0x3b294d84	0.0025833556
220	0x3b5ac4b7	0.0033381411
221	0x3ba48938	0.0050212406
222	0xbc3dfa2a	-0.011595288
223	0xbbfa284c	-0.0076341983
224	0xbcc5e0df	-0.024155078
225	0xbd18dc26	-0.037319325
226	0xbc0b4ff1	-0.008502946
227	0x3b43320a	0.0029784464
228	0xbbe46c9f	-0.0069709565
229	0x3bb1f9b4	0.0054313783
230	0xbb54a07d	-0.0032444291
231	0xbc1a906b	-0.009433846
232	0xbc0721c9	-0.008247801
233	0xbbbf4944	-0.0058375914
234	0x3bfa770a	0.007643585
235	0xb9776e22	-0.00023596783
236	0xba82fa2c	-0.000999277
237	0x3bcb3923	0.0062018796
238	0xbc31a562	-0.010842653
239	0xbc92d6d7	-0.01792471
240	0x3bcded75	0.0062844106
241	0xbca14786	-0.019687425
242	0xb9a0a509	-0.0003064054
243	0xbc8cc410	-0.017183334
244	0x3b3a51ea	0.0028430172
245	0x3c20abd6	0.009806594
246	0xbc5468d4	-0.012964446
247	0xbccf4c79	-0.02530502
248	0x3bbd1c5f	0.0057712044
249	0x3ba87d28	0.005141873
250	0xb8cdc63c	-9.812086e-05
251	0x3c3b76ec	0.011441927
252	0xbbf856d0	-0.007578708
253	0x3b4f3c65	0.0031621691
254	0x3b016285	0.001974256
255	0xbaac69d6	-0.00131541

network.4.bias f4 [64]
0	0xbb8f0a1d	-0.0043652193
1	0xbb99b0b9	-0.0046902564
2	0xba1385c4	-0.00056275376
3	0xba227f4e	-0.00061987794
4	0xbb0c3b4c	-0.0021397648
5	0xbb1def79	-0.0024099036
6	0xbc148c1f	-0.009066611
7	0x3a966726	0.0011474832
8	0xba977221	-0.0011554399
9	0xbab5fa09	-0.001388372
10	0x3b8a18e6	0.004214394
11	0xbaf71d62	-0.0018853361
12	0xbaca0851	-0.0015413855
13	0xbb970d3c	-0.004609732
14	0xbb0afe7c	-0.0021208813
15	0xb9e2a9db	-0.0004323263
16	0x3b64bed9	0.0034903793
17	0xbb3833c9	-0.0028107038
18	0xbab5a54c	-0.0013858466
19	0xbb5278f5	-0.0032115553
20	0xba895dde	-0.0010480245
21	0xbb0496a2	-0.0020231386
22	0xbb64bea1	-0.0034903663
23	0x3b9acd5b	0.0047241873
24	0x3ac0682c	0.0014679483
25	0xbbb903a6	-0.005646187
26	0x3abcd3a0	0.0014406331
27	0xbac62bfb	-0.0015119308
28	0xbb83439e	-0.0040058633
29	0xbb9bc9c6	-0.004754278
30	0xbabd787d	-0.0014455464
31	0xba14e27f	-0.00056795025
32	0xbafd72bf	-0.0019336565
33	0x3ac63446	0.001512178
34	0xbbe4f254	-0.0069868956
35	0x3b114ea2	0.0022172113
36	0xbbf62fb0	-0.007513009
37	0xbbe8bbdf	-0.007102474
38	0xbacc5ed0	-0.0015592221
39	0xba163fb3	-0.0005731538
40	0x37afb2a1	2.0944806e-05
41	0xbaaad01f	-0.0013031996
42	0xbb09fc6e	-0.0021055
43	0xbb24df85	-0.0025157642
44	0xbb5a2269	-0.003328467
45	0x39a2600c	0.00030970608
46	0xbb4944da	-0.0030711205
47	0xbbb59743	-0.0055417134
48	0xbb85eeae	-0.0040872907
49	0xbb3984e1	-0.0028307962
50	0x3c6eef9e	0.014583496
51	0xbb5882d6	-0.0033036969
52	0xbb7e70a1	-0.0038824456
53	0xbb5a037d	-0.003326624
54	0x3baa2bad	0.005193195
55	0xba922a38	-0.0011151498
56	0xbb3ff6c3	-0.0029291369
57	0xba56c922	-0.0008193423
58	0xbb0974b2	-0.0020974097
59	0x3a4bf1f1	0.00077798875
60	0xbb84afbd	-0.00404927
61	0xbb61ecef	-0.0034473499
62	0xbb0b144a	-0.002122181
63	0xbb01b4c1	-0.0019791576

network.6.weight f4 [64]
0	0x3dc6da03	0.09709551
1	0x3dcad8d1	0.09904636
2	0x3daec9ea	0.08534606
3	0x3dba5ccf	0.09099733
4	0x3defc936	0.117083
5	0x3d90c058	0.07067937
6	0x3de0b144	0.10971311
7	0x3da28c54	0.07936922
8	0x3da40ff0	0.08010852
9	0x3db0baca	0.08629377
10	0x3d96d0fa	0.07364078
11	0x3db63be0	0.08898139
12	0x3debe7be	0.11518811
13	0x3de0b8fe	0.109727845
14	0x3dd7ab8f	0.10530769
15	0x3db6f5ce	0.08933602
16	0x3db134f3	0.086526774
17	0x3dae6289	0.08514888
18	0x3dae3324	0.08505848
19	0x3dfdfcd8	0.12401742
20	0x3dca7ce4	0.09887102
21	0x3dd2443c	0.10266921
22	0x3dbc78b1	0.092027076
23	0x3d8c3961	0.06846882
24	0x3d922d4f	0.07137548
25	0x3de5dc09	0.11223609
26	0x3ddc5cfb	0.10759922
27	0x3df0299e	0.11726688
28	0x3db9453e	0.0904641
29	0x3dc1d34b	0.09464129
30	0x3de230f7	0.110444956
31	0x3dc8b952	0.09800972
32	0x3de49eaf	0.11163079
33	0x3db8c187	0.090212874
34	0x3dacb62c	0.08433184
35	0x3dbb3689	0.09141261
36	0x3dd6586d	0.10466085
37	0x3dcd45ce	0.1002308
38	0x3db22497	0.08698385
39	0x3db64d1c	0.08901426
40	0x3dc80519	0.09766597
41	0x3dc85be8	0.09783155
42	0x3ddef4d1	0.10886539
43	0x3d99bafc	0.075063676
44	0x3db5ab76	0.08870594
45	0x3da51180	0.080599785
46	0x3dd08fe3	0.10183694
47	0x3da4e355	0.08051173
48	0x3dc6642e	0.096870765
49	0x3dcbc396	0.099494144
50	0x3d96e683	0.07368185
51	0x3df63213	0.1202127
52	0x3dce8232	0.100834265
53	0x3dc1f27a	0.09470077
54	0x3d90148c	0.07035169
55	0x3dc842e8	0.09778386
56	0x3dc44a54	0.095844895
57	0x3dc9bee1	0.098508604
58	0x3db45d3f	0.08806848
59	0x3d9f02b7	0.0776419
60	0x3de32de6	0.11092739
61	0x3d808652	0.062756196
62	0x3dce05a4	0.100596696
63	0x3dc52b93	0.09627452

network.6.bias f4 [64]
0	0x3c9fab6b	0.019490918
1	0x3c6fd726	0.014638698
2	0x3cdd5edf	0.027022777
3	0x3cab0cc3	0.020880109
4	0x3d08b854	0.033378914
5	0x3c0f9df1	0.0087656835
6	0xbb963a29	-0.00458457
7	0x3cb63b67	0.022245122
8	0x3cc73602	0.024317745
9	0x3cfd61bf	0.030930398
10	0x3c43d669	0.011952975
11	0x3cce34a8	0.025171593
12	0x3cc26865	0.02373142
13	0x3cb37064	0.021904178
14	0x3cb05676	0.021525603
15	0x3ce809e5	0.02832503
16	0x3d22e64c	0.03977041
17	0x3ca87e4c	0.020568036
18	0x3c95fdc1	0.018309476
19	0x3cd933f5	0.026514033
20	0x3ce754c1	0.028238656
21	0x3c9a666b	0.018847665
22	0x3cb8cfbc	0.022559993
23	0xbc2b7b28	-0.010466374
24	0xbc0a487f	-0.008440136
25	0x3d02e686	0.031958126
26	0x3d15861c	0.03650485
27	0x3ce3374e	0.027736332
28	0x3c5c62cf	0.013451292
29	0x3c945aca	0.018109698
30	0x3c9441aa	0.018097717
31	0x3d19b8ea	0.037529863
32	0x3c9971b9	0.018730985
33	0x3cee8aeb	0.029118976
34	0x3bffad14	0.007802615
35	0x3cfab69c	0.030604653
36	0x3c868027	0.01641853
37	0x3b33858e	0.0027392837
38	0x3c9848bf	0.018589376
39	0x3cd98264	0.026551433
40	0x3d11e42f	0.035618003
41	0x3cf0b6f5	0.029384116
42	0x3cd619f3	0.02613542
43	0x3c0ab2ec	0.00846551
44	0x3c8ff73d	0.017573947
45	0x3caf7ab2	0.02142081
46	0x3c5f7187	0.013637907
47	0x3c9ac9e9	0.018895106
48	0x3d094af0	0.03351873
49	0x3cbdf9ef	0.023190467
50	0xbc672f20	-0.014110357
51	0x3ccb4694	0.024813928
52	0x3ca11ca9	0.019666987
53	0x3caeec62	0.02135295
54	0xbcb23483	-0.021753555
55	0x3cbda643	0.023150569
56	0x3ca4daa2	0.020123783
57	0x3c9c707e	0.01909661
58	0x3b526cdb	0.003210834
59	0x3c9ab231	0.018883796
60	0x3cc625de	0.024187978
61	0x3a1eee65	0.0006062745
62	0x3c99d76a	0.018779475
63	0x3cb43944	0.021999963

network.6.running_mean f4 [64]
0	0x3ac8adc2	0.0015310573
1	0x3abc3090	0.0014357734
2	0x3b9369be	0.0044986894
3	0x3b50a804	0.0031838426
4	0x3b10bb78	0.0022084396
5	0x3b638064	0.0034713978
6	0x3986cead	0.00025712457
7	0x3b6d72d7	0.003623178
8	0x3b83ef1c	0.004026307
9	0x3bb389ea	0.005479087
10	0x3b98d670	0.004664235
11	0x3b24b0fc	0.0025129905
12	0x3b07eae9	0.0020739383
13	0x3ae76d1e	0.0017656421
14	0x3b2b5dc1	0.002614841
15	0x3b2158bb	0.0024619538
16	0x3ba4c16f	0.005027942
17	0x3ae82a14	0.0017712736
18	0x3b22ee6a	0.0024861344
19	0x3ac670a5	0.0015139772
20	0x3b32ee44	0.0027302662
21	0x3af80ec1	0.0018925295
22	0x3b01c97a	0.0019803927
23	0x3bdb2c6e	0.006688646
24	0x3bb907cb	0.005646681
25	0x3b820897	0.003968309
26	0x3b6cd108	0.0036135335
27	0x3b0e885c	0.0021748757
28	0x3b1d3ae5	0.0023991403
29	0x3abbf0c3	0.001433872
30	0x3b0359f0	0.002004262
31	0x3b8b8ba7	0.004258591
32	0x3b006170	0.0019589327
33	0x3b9f6ece	0.004865504
34	0x3a8a0adf	0.0010531804
35	0x3b87054e	0.0041205054
36	0x3a97785e	0.0011556258
37	0x3a98bc26	0.0011652752
38	0x3bc856df	0.0061138715
39	0x3b337401	0.0027382376
40	0x3b75f5a4	0.0037530446
41	0x3b441962	0.0029922356
42	0x3b085095	0.0020799984
43	0x3b837a88	0.0040124096
44	0x3af32fa5	0.0018553628
45	0x3b7d46df	0.0038646979
46	0x3b0438b2	0.0020175395
47	0x3b1f0f46	0.0024270578
48	0x3b2ef073	0.0026693612
49	0x3b47783f	0.0030436662
50	0x3c1d49a1	0.009600074
51	0x3ac3cbd4	0.0014938065
52	0x3b1164a4	0.002218523
53	0x3b1396f9	0.0022520407
54	0x3ba4665a	0.005017084
55	0x3b383c42	0.0028112088
56	0x3add45d3	0.0016881771
57	0x3b0bf50e	0.002135578
58	0x3b1f3456	0.002429267
59	0x3b46fca8	0.0030362997
60	0x3adffa3f	0.0017088129
61	0x3bca454c	0.0061728116
62	0x3b104e5c	0.0022019362
63	0x3b0e6b1b	0.002173132

network.6.running_var f4 [64]
0	0x37577e21	1.2844365e-05
1	0x376a39d4	1.3960951e-05
2	0x386cd590	5.646568e-05
3	0x3808d7c4	3.2625874e-05
4	0x37e352df	2.7099099e-05
5	0x38149cc2	3.543194e-05
6	0x36b16e49	5.28785e-06
7	0x37d76754	2.5678113e-05
8	0x3816a0a7	3.5912406e-05
9	0x3894f4b9	7.102773e-05
10	0x37f3343f	2.8992186e-05
11	0x379cec25	1.8706613e-05
12	0x376833b7	1.3840318e-05
13	0x379040b0	1.719626e-05
14	0x37ca82fe	2.4141274e-05
15	0x37c761ec	2.3768247e-05
16	0x381199af	3.4713823e-05
17	0x37404c2a	1.1461825e-05
18	0x37a2c13c	1.9401887e-05
19	0x373d2ef2	1.1276208e-05
20	0x37b1554b	2.1139762e-05
21	0x374b9704	1.2134904e-05
22	0x37733f97	1.4498734e-05
23	0x3853863f	5.0431347e-05
24	0x383602e6	4.339488e-05
25	0x3899f6fd	7.341614e-05
26	0x380fcdf7	3.4285677e-05
27	0x379546ff	1.7795244e-05
28	0x378d1d3c	1.6822123e-05
29	0x3712fc73	8.761056e-06
30	0x373e79d8	1.13532515e-05
31	0x381aa914	3.6873927e-05
32	0x3780f892	1.5374539e-05
33	0x383f32ae	4.5585148e-05
34	0x37094377	8.181544e-06
35	0x37eebf71	2.8460958e-05
36	0x37512e33	1.2468127e-05
37	0x3725363c	9.847394e-06
38	0x38924505	6.9746784e-05
39	0x37d189cb	2.4978906e-05
40	0x37cf70d3	2.472886e-05
41	0x37d51874	2.5402966e-05
42	0x3779c812	1.4888139e-05
43	0x380b279d	3.3177075e-05
44	0x3782067f	1.5500233e-05
45	0x380055b1	3.0597384e-05
46	0x37662dea	1.37197585e-05
47	0x37aed88a	2.084325e-05
48	0x37f34d6b	2.9003908e-05
49	0x3804991a	3.161384e-05
50	0x38783cc5	5.9184404e-05
51	0x375a0c7d	1.299672e-05
52	0x379f772c	1.900977e-05
53	0x3791eda5	1.7396009e-05
54	0x380a490c	3.2969794e-05
55	0x37be048e	2.2651886e-05
56	0x37176966	9.024841e-06
57	0x377fccbc	1.5246853e-05
58	0x378ffdec	1.716517e-05
59	0x37dd959c	2.641492e-05
60	0x377e7da7	1.51688355e-05
61	0x38adc409	8.285797e-05
62	0x37a74c6e	1.9943542e-05
63	0x37b10240	2.1101092e-05

network.8.weight f4 [32, 64]
0	0xbc772c5c	-0.01508626
1	0xbd29fc7b	-0.04150055
2	0xbc86aa74	-0.0164387
3	0xba8551a9	-0.0010171431
4	0xbd3d0bfe	-0.046154015
5	0x3c9faf1d	0.01949268
6	0xbc0889c5	-0.008333628
7	0x3d080821	0.033210877
8	0xbca562af	-0.020188658
9	0x3b6a75ed	0.0035775856
10	0xbcfc972e	-0.030833807
11	0x3be43e6a	0.006965448
12	0x3ae959f5	0.0017803299
13	0x3c85139d	0.016244704
14	0xbc84b059	-0.01619737
15	0x3c84913d	0.016182536
16	0x39b765c8	0.00034980313
17	0xbca58eb2	-0.020209644
18	0xbc861259	-0.01636617
19	0x3b12fbc7	0.0022427903
20	0x3cd44de7	0.025916053
21	0xbcb8eabd	-0.02257287
22	0xbc5dff6e	-0.013549669
23	0x3c1f4bd9	0.009722673
24	0xbd13ad7b	-0.036054116
25	0xbaf235ac	-0.001847913
26	0xbc19c66b	-0.009385685
27	0xbb5075de	-0.0031808536
28	0xbcf5976e	-0.029979434
29	0x3b5103c7	0.003189312
30	0x3b914209	0.004432921
31	0x3cb1c340	0.021699548
32	0xbd35e6bc	-0.0444095
33	0xbc03a912	-0.008035915
34	0x3b97079d	0.004609062
35	0xbb352d67	-0.002764547
36	0x3c20e8e9	0.009821155
37	0xbc11c4a7	-0.008896983
38	0xba60fc66	-0.0008582532
39	0x3c03e72d	0.008050722
40	0x3c52a7c6	0.012857383
41	0xbc1f7530	-0.0097325295
42	0xbc49185e	-0.012273876
43	0xbd3c26d1	-0.045935456
44	0xbca49c9b	-0.020094207
45	0xbc550e83	-0.013003948
46	0xbd0620e7	-0.032746222
47	0x3d12fc70	0.035885274
48	0xbb156519	-0.0022795855
49	0x3b5498d8	0.0032439735
50	0x3c7ffa6a	0.015623668
51	0x3cb7cb6f	0.022435872
52	0xbc6f88ef	-0.01462005
53	0xbc04cf75	-0.008106102
54	0xbb98fe0b	-0.004668956
55	0x3c4aac32	0.012370156
56	0x3c5ad1d7	0.013355694
57	0x3ca00b77	0.019536717
58	0xbce31c5f	-0.02772349
59	0xbc272c5d	-0.010203448
60	0xbc8927c7	-0.0167426
61	0x3c0334ff	0.008008241
62	0xbc3c3bc2	-0.011488857
63	0xbc2c6bc2	-0.010523738
64	0xbd05d6b7	-0.03267547
65	0xbc979454	-0.018503346
66	0xbd51f6c4	-0.051260725
67	0x3c8db013	0.017295873
68	0xbb05bb35	-0.0020405774
69	0xbc25cd99	-0.010119819
70	0xbc21a4a6	-0.009865915
71	0xb9ef86c0	-0.0004568603
72	0xbb9bee17	-0.004758607
73	0xbc5c8ed6	-0.013461789
74	0xbbb1c4d4	-0.005425075
75	0x3ca06013	0.019577062
76	0x3c6cc9fe	0.014452456
77	0xbd728883	-0.05921222
78	0xbabcca12	-0.0014403483
79	0x3b889432	0.004168057
80	0x3b41c258	0.00295653
81	0x3c9160c9	0.017746346
82	0x3c2968d1	0.010339932
83	0xbc2b34a1	-0.010449559
84	0xbc13c272	-0.009018527
85	0x3c5d08bc	0.013490852
86	0xbd165ee5	-0.036711592
87	0x3caae61e	0.020861682
88	0x3bcd2ff5	0.0062618204
89	0xbd3fe134	-0.04684563
90	0x3bf04a6c	0.0073330905
91	0x39a7eca2	0.00032029027
92	0x3c3e66ee	0.01162122
93	0x3cc4505e	0.023964103
94	0xbb0abfa8	-0.0021171365
95	0xbbd07f93	-0.0063628643
96	0xbb1e9e6f	-0.002420332
97	0xbbc3460d	-0.0059592784
98	0xbc2b0593	-0.010438341
99	0xbb1a5ff6	-0.0023555732
100	0x3c0f8184	0.008758906
101	0xbd7cee5f	-0.061750766
102	0xbab29983	-0.0013626072
103	0x3b597cdb	0.0033185992
104	0x3abb54af	0.0014292205
105	0xbc8244d3	-0.015901959
106	0x3b9d0a44	0.0047924835
107	0x3acb7247	0.0015521728
108	0x3c782968	0.015146591
109	0xbc54d7fa	-0.012990946
110	0x3cf542bc	0.029939048
111	0xbb9a2416	-0.004704009
112	0xbd696c7b	-0.05698822
113	0xba84ca0e	-0.0010131018
114	0x3cb08cf0	0.02155158
115	0xbc29f668	-0.010373689
116	0xb9c5a5f1	-0.00037698404
117	0xba4cba6a	-0.000780976
118	0x3d2417ff	0.040061947
119	0x3a95dd9b	0.0011433841
120	0x3c07c2d2	0.008286195
121	0xbca77bdd	-0.020444805
122	0x3d02245d	0.03177296
123	0x3c19468c	0.009355199
124	0x3b8e43ef	0.0043415944
125	0xbc4c7cf6	-0.012480965
126	0xbb09721c	-0.0020972556
127	0xbc0fa311	-0.008766905
128	0x3bc3f5e6	0.005980241
129	0xbb1acbdd	-0.0023620047
130	0xba5a677f	-0.0008331462
131	0xbd10e6a7	-0.035376217
132	0xbceb64f4	-0.028734662
133	0xbac40e32	-0.0014957844
134	0xbcd0466a	-0.025424201
135	0x3b945077	0.0045261937
136	0x3c01b538	0.007916741
137	0xba78c411	-0.00094896654
138	0x3c1ace20	0.009448558
139	0xbba2845b	-0.0049596257
140	0xbaac9ea5	-0.0013169838
141	0x389c6578	7.45756e-05
142	0xbca12e78	-0.019675478
143	0xba994a14	-0.0011695051
144	0xbd9da18c	-0.07696828
145	0xbb2d8a1d	-0.0026480027
146	0xbd0b274e	-0.03397303
147	0xbcff29a7	-0.031147791
148	0xbd2bad0e	-0.041913085
149	0xbaaea253	-0.0013323523
150	0xb964aa70	-0.00021807267
151	0x3c05841e	0.008149175
152	0x3bde3886	0.0067816405
153	0xbbb23621	-0.0054385816
154	0xbd160719	-0.036627863
155	0xbcc77c07	-0.024351133
156	0xbc0302d2	-0.007996278
157	0xbbfa2cb6	-0.0076347245
158	0xbb45fe13	-0.0030211254
159	0xbd3deae3	-0.046366584
160	0xbab348c0	-0.0013678297
161	0xbd543979	-0.051812623
162	0x3a5e0310	0.0008469084
163	0xbd46d31c	-0.048541173
164	0xbb68c90e	-0.0035520229
165	0xbbfa3086	-0.007635179
166	0xbb8d1a95	-0.0043061473
167	0x39da3201	0.00041617456
168	0xbd7b7721	-0.061392907
169	0xbd1bf669	-0.038076792
170	0x3ae2a5f7	0.0017291893
171	0xba16276b	-0.00057279196
172	0xbbbd3817	-0.0057745087
173	0x3c4cc93d	0.012499151
174	0xbb40ca5d	-0.0029417493
175	0xbbf47123	-0.007459776
176	0x3a759b4c	0.00093691493
177	0xbcb8393c	-0.022488229
178	0x3bba78d1	0.005690672
179	0x3a1cf118	0.00059868535
180	0x3ac31877	0.001488461
181	0xbc378a7b	-0.01120245
182	0xbb022c26	-0.001986274
183	0xbd13fc31	-0.03612918
184	0xbd168619	-0.03674898
185	0xbce9b21f	-0.028527318
186	0xbbbc1f41	-0.0057410304
187	0xbc09df36	-0.008415034
188	0xba9f7644	-0.0012165983
189	0x3b98c551	0.004662194
190	0xbcbdc200	-0.023163795
191	0x3a992269	0.0011683229
192	0xbcd10d5c	-0.025519066
193	0xbc64217d	-0.013924
194	0xbc1d1815	-0.009588261
195	0xba16e9c8	-0.0005756882
196	0xbc3c9cf3	-0.011512029
197	0xbc2a0453	-0.010377008
198	0xbd272273	-0.040804338
199	0xbca7b12d	-0.020470226
200	0xba2cb9f3	-0.0006588988
201	0xbbdeae86	-0.006795707
202	0xbc8b5d55	-0.017012278
203	0xbcb55041	-0.022132995
204	0xbd70e0af	-0.058808025
205	0xbba5c1f3	-0.005058521
206	0xbc865848	-0.016399518
207	0x3b833c03	0.0040049567
208	0xbbd5ce8d	-0.006524867
209	0xbb5372e2	-0.003226452
210	0xbacdf912	-0.0015714488
211	0xbd805458	-0.06266087
212	0x3a094674	0.00052366336
213	0xbd8ac7a5	-0.067763604
214	0xbb83dcd9	-0.00402413
215	0xbab8d7e0	-0.0014102422
216	0x3a155be0	0.00056975894
217	0xbb337ac4	-0.0027386406
218	0xbbc7b70f	-0.0060948203
219	0xbd267824	-0.04064192
220	0x3b76a9c7	0.0037637816
221	0xbb81b075	-0.003957803
222	0xbd83de11	-0.0643884
223	0xbb2e942c	-0.002663861
224	0xbd8e216f	-0.06939971
225	0xbb55f780	-0.0032648742
226	0xbd1d9fdb	-0.03848253
227	0xba59572f	-0.00082908844
228	0x3acdc870	0.0015699994
229	0x3b654772	0.0034985212
230	0x3c07beee	0.008285267
231	0x3b07b646	0.0020708009
232	0x3abb975e	0.0014312079
233	0x3b517d1f	0.0031965447
234	0x3a62f857	0.00086582213
235	0x3b050169	0.002029503
236	0xbaf11d57	-0.0018395585
237	0xbbc10a40	-0.0058911145
238	0xbc36f464	-0.011166666
239	0xbbdbb6cf	-0.006705142
240	0xbc56410c	-0.013077032
241	0x3bbc2d35	0.005742694
242	0xbb7a02ee	-0.003814872
243	0xbc830c22	-0.015996996
244	0xbb4b5a34	-0.0031029107
245	0x3ae34ce6	0.0017341643
246	0x3b92e3ba	0.0044827135
247	0x3bc68883	0.006058754
248	0xba57bb53	-0.00082295126
249	0xbc93b9b7	-0.018032892
250	0xbc470bd3	-0.012148815
251	0x3c13fa69	0.00903187
252	0x3b7c5d64	0.0038507814
253	0xbc93acd5	-0.018026749
254	0xbc108d9a	-0.008822823
255	0xbaadbb72	-0.0013254716

network.8.bias f4 [32]
0	0x3c737dbb	0.014861519
1	0x3ccef4c0	0.02526319
2	0x3c7b52e3	0.015339586
3	0x3cbeee54	0.023307003
4	0x3c27430a	0.010208854
5	0x3c9d01f5	0.019165972
6	0x3c8f8dfb	0.017523756
7	0x3ce6b081	0.028160335
8	0x3c09d6f6	0.008413067
9	0x3cae3bb9	0.021268712
10	0x3cafad0b	0.021444818
11	0x3cea2dcf	0.028586296
12	0x3cb2a692	0.021807943
13	0x3cd037f4	0.025417306
14	0x3c547202	0.012966635
15	0x3ce181e8	0.027527764
16	0x3c98d8ae	0.018658008
17	0x3c8cd043	0.01718915
18	0x3c6e4c4a	0.014544556
19	0x3cff045c	0.031130008
20	0x3ccbed81	0.024893524
21	0x3cc03341	0.02346194
22	0x3cb620c6	0.022232424
23	0x3c5821b6	0.013191631
24	0x3c7f1b29	0.01557044
25	0x3ce3f1cc	0.027825259
26	0x3c8fbb52	0.017545376
27	0x3c96279c	0.018329434
28	0x3cb2eb63	0.021840757
29	0x3c399751	0.011327581
30	0x3ccb9519	0.024851369
31	0x3c32d513	0.010915059

network.10.weight f4 [32]
0	0x3f198f59	0.59984356
1	0x3f3fa52b	0.748614
2	0x3f4f8e3e	0.8107642
3	0x3f440c91	0.76581675
4	0x3f2a1d99	0.6645141
5	0x3f439be5	0.7640975
6	0x3f34f128	0.70680475
7	0x3f2ca502	0.6743928
8	0x3f28adbf	0.65890115
9	0x3f2b28de	0.66859233
10	0x3f48bfb2	0.78417504
11	0x3f27a112	0.6548015
12	0x3f3dd2ef	0.74149984
13	0x3f388241	0.7207375
14	0x3f3a2d22	0.7272512
15	0x3f2e4132	0.6806823
16	0x3f449a26	0.7679771
17	0x3f279de7	0.65475315
18	0x3f4d5712	0.80210984
19	0x3f3d668b	0.73984593
20	0x3f27b479	0.65509754
21	0x3f437de6	0.7636398
22	0x3f2ff0ca	0.6872679
23	0x3f1b43f4	0.60650563
24	0x3f30a9cf	0.6900911
25	0x3f3c300d	0.7351082
26	0x3f41b213	0.75662345
27	0x3f2fc9b7	0.6866717
28	0x3f3c8ea1	0.73655134
29	0x3f3aff08	0.73045397
30	0x3f2ca923	0.6744558
31	0x3f44b7a2	0.768427

network.10.bias f4 [32]
0	0x3d971dec	0.07378754
1	0xbd20cc43	-0.0392573
2	0x3bd0647d	0.0063596354
3	0x3dae4eae	0.08511101
4	0x3a22c81b	0.00062096276
5	0x3c39ef11	0.011348502
6	0x3c88bf75	0.016692856
7	0xbc23fcd6	-0.010009011
8	0xbdb8767f	-0.09006976
9	0xbbdb7b18	-0.0066980235
10	0xbc837f72	-0.016051982
11	0xbcebcd27	-0.028784348
12	0x3ca79621	0.02045733
13	0xbdb76f20	-0.08956742
14	0x3db392a4	0.08768204
15	0xbd2666f0	-0.040625513
16	0xbcad49ad	-0.021153295
17	0x3deabb07	0.11461454
18	0x3c71ce4d	0.014758659
19	0xbc883f29	-0.01663168
20	0x3d81705e	0.063202605
21	0xbdb41e5b	-0.08794852
22	0x3dbfba93	0.09361758
23	0x3d96f205	0.0737038
24	0xbcaa72b3	-0.020806646
25	0xbdc976d1	-0.098371156
26	0xbd3db1ab	-0.046312016
27	0xbd88f0d7	-0.066865616
28	0xbdb4da83	-0.0883074
29	0xbccbcc60	-0.024877727
30	0x3ceffdd0	0.029295832
31	0x3c5f6f96	0.013637444

network.10.running_mean f4 [32]
0	0x3c851dc7	0.01624955
1	0x3cb60f45	0.022224078
2	0x3c35f3b2	0.011105465
3	0x3c9c3548	0.019068375
4	0x3c5427e0	0.01294896
5	0x3c8337bb	0.016017785
6	0x3c8881d4	0.01666347
7	0x3cdd9cc3	0.027052289
8	0x3c2eff50	0.010680988
9	0x3c925b1c	0.01786571
10	0x3c87f9a0	0.016598523
11	0x3ce87874	0.028377749
12	0x3c8ef771	0.017451974
13	0x3c98645c	0.018602543
14	0x3c212a00	0.009836674
15	0x3cb3049f	0.02185279
16	0x3c896a05	0.016774187
17	0x3c843ebf	0.0161432
18	0x3c2c6a50	0.010523394
19	0x3cda1526	0.026621412
20	0x3cc07426	0.023492884
21	0x3c9de10e	0.019272354
22	0x3ccac569	0.024752336
23	0x3c5c3556	0.013440451
24	0x3c55d8f5	0.013052215
25	0x3cc9b4ec	0.024622403
26	0x3c69a13f	0.0142596355
27	0x3c8073fd	0.015680308
28	0x3c8b41a5	0.016999075
29	0x3c2e47dd	0.010637251
30	0x3cd9e19e	0.02659684
31	0x3c1cfd24	0.009581838
