models/mlp_multiclass_crossentropy20250901_170210.pth (torch, 82274 bytes, 21 tensors)

network.0.weight f4 [128, 48]
0	0xbcb21c7b	-0.021742096
1	0x3b172a62	0.0023066034
2	0x3b1000fc	0.0021973243
3	0x3b9ce61b	0.004788173
4	0x3b0c430a	0.0021402263
5	0x3c546c2a	0.012965241
6	0x3b715199	0.0036822318
7	0xbc9d1460	-0.019174755
8	0xbb451b3a	-0.0030076043
9	0xb7f72698	-2.9462666e-05
10	0xbcafa7b6	-0.021442275
11	0x3abee260	0.0014563315
12	0x3b416939	0.002951218
13	0xbc961c9d	-0.01832419
14	0x3c3d77b9	0.011564189
15	0xbb1d8b56	-0.002403935
16	0xbca2879d	-0.019840056
17	0x3aaf4544	0.0013372083
18	0x3c56c663	0.0131088225
19	0x3c2fa283	0.010719898
20	0x3c10b10b	0.008831273
21	0x3bcf9353	0.006334701
22	0xbcbb69dc	-0.022877626
23	0xb8790f5e	-5.9380538e-05
24	0x3c88db03	0.016705995
25	0x3a31cb6d	0.0006782327
26	0x3c2726e6	0.010202145
27	0xbb1be9ea	-0.0023790547
28	0xbcd167b8	-0.025562152
29	0xbc29bcbe	-0.010359941
30	0x3b8609ce	0.0040905243
31	0x3bce2696	0.006291221
32	0xbca67187	-0.020317806
33	0x3c88ca5b	0.016698053
34	0xba063dd7	-0.0005120909
35	0xbc720528	-0.014771737
36	0xba367a0c	-0.00069609354
37	0xbb69586d	-0.0035605684
38	0xbc43efc7	-0.011959023
39	0x3c706e77	0.014674774
40	0xbd3a77ff	-0.045524593
41	0xbd0d70d3	-0.034531426
42	0xbcf58914	-0.02997259
43	0xbd1028e2	-0.03519524
44	0x3b81e73f	0.0039643343
45	0xbb582f07	-0.0032987015
46	0x3bc47926	0.0059958873
47	0x3c9e446e	0.01931974
48	0x3d4e030d	0.05029588
49	0x3c9c813e	0.019104596
50	0xbbed2134	-0.007236624
51	0xbaa45e1f	-0.0012540257
52	0xbb446cf1	-0.002997216
53	0x3b4ae4eb	0.00309592
54	0xbd176197	-0.036958303
55	0x3cae6fb3	0.021293497
56	0xbc28b23e	-0.0102964025
57	0x3b1280d8	0.002235463
58	0xbbc5bc56	-0.0060344143
59	0xbb9d3960	-0.0047980994
60	0x3ca82f32	0.020530317
61	0xbb8bad83	-0.0042626276
62	0x3c7b9edb	0.015357698
63	0x3ccb5a29	0.024823265
64	0xb8e6aa33	-0.00010998957
65	0xbb9a401f	-0.004707351
66	0xbc8dd221	-0.017312111
67	0x3dd91da9	0.1060136
68	0x3c080122	0.008301051
69	0x3c876d65	0.016531656
70	0xbca4d53f	-0.020121215
71	0xbc6ad18c	-0.014332186
72	0x3cb6cfc2	0.022315864
73	0xbca8bf2a	-0.020598967
74	0xbcd4c00b	-0.02597048
75	0x3d4757bc	0.048667654
76	0xbd0445de	-0.032293193
77	0xbc961bef	-0.018323867
78	0x3b869c5a	0.004107994
79	0xbc9d01e5	-0.019165942
80	0xbd1cd432	-0.038288303
81	0x3c3bcace	0.011461927
82	0x3cacea5b	0.021107843
83	0x3be7840e	0.0070653027
84	0x3c544f18	0.012958311
85	0x3ca514d1	0.020151528
86	0xbc105633	-0.008809614
87	0xbaec97ad	-0.0018050574
88	0x3aa91565	0.0012900053
89	0x3d1624ff	0.036656376
90	0xbbaa93ff	-0.005205631
91	0xbe13f7ee	-0.14450046
92	0x3b5668b8	0.0032716226
93	0xbb2fe610	-0.0026840009
94	0xbc8b8cfd	-0.017035002
95	0x3cd3e8ca	0.025867838
96	0x3d0eff9c	0.034911737
97	0xbd3b2736	-0.04569169
98	0x3aa3f4b8	0.0012508845
99	0xbc6d69ac	-0.014490526
100	0xbc57c57f	-0.013169645
101	0xbd2fce44	-0.04292132
102	0x379d8e55	1.8782137e-05
103	0xbb915e0f	-0.0044362615
104	0xbbe28db7	-0.0069138664
105	0xb97da73d	-0.00024190261
106	0x391ea495	0.00015129366
107	0xbc6b6c9f	-0.014369159
108	0xbb8e877a	-0.004349646
109	0xbcc1fc41	-0.023679854
110	0xbc96acab	-0.018392881
111	0x3987a412	0.00025871448
112	0xbc402d24	-0.011729512
113	0xbc2d6fe6	-0.010585761
114	0xbbd589c2	-0.006516666
115	0x3d13fac1	0.03612781
116	0xbcf029b4	-0.02931676
117	0xbaab52cb	-0.0013070939
118	0xbc9ca231	-0.019120308
119	0xbc4f70bb	-0.012661154
120	0x3962f901	0.00021645801
121	0xbb4027ea	-0.0029320666
122	0x3b8cefb6	0.0043010367
123	0xbc54f0fe	-0.01299691
124	0xbce33326	-0.02773435
125	0x3c0df5e6	0.008664584
126	0xbc3b7fda	-0.011444056
127	0x3c435454	0.011921961
128	0x3d6e0998	0.058114618
129	0xbd1eb9e7	-0.03875151
130	0xbbba5489	-0.005686347
131	0xb9172eff	-0.0001441799
132	0xb8f7e9d3	-0.00011821431
133	0x3b28a473	0.0025732785
134	0x3bb20c90	0.0054336265
135	0xbd230eeb	-0.03980915
136	0x3d70efb6	0.058822356
137	0xbc1be54c	-0.009515118
138	0x3cb24076	0.021759253
139	0xbd43f8f9	-0.04784486
140	0xbb00fd92	-0.001968239
141	0xbc39a321	-0.011330397
142	0x3bc5a6ec	0.0060318615
143	0x3c8caed8	0.017173216
144	0xbcfefe6c	-0.031127177
145	0xbc81edd5	-0.015860477
146	0x3733a5d3	1.070784e-05
147	0xbaaa9db2	-0.0013016968
148	0xbc0eaa1c	-0.008707549
149	0xbcd1aeff	-0.02559614
150	0xbbb94c87	-0.0056548747
151	0x3ad6f04c	0.0016398518
152	0x39836f6c	0.00025069283
153	0xbc182fe7	-0.009288765
154	0xbc5bdb46	-0.013418978
155	0xbad72dd5	-0.0016416857
156	0x3aad827c	0.001323774
157	0xbc9c440a	-0.019075412
158	0x3bc2011e	0.0059205433
159	0xbd559bb7	-0.052150454
160	0xbbfc64b4	-0.0077024344
161	0x3b89be81	0.004203618
162	0xbb8a8623	-0.004227416
163	0x3d683210	0.05668837
164	0xbb467b06	-0.003028573
165	0xbc5ddd4a	-0.013541529
166	0x3b6a2535	0.0035727744
167	0x3ba86f60	0.00514023
168	0x37fc992c	3.0112067e-05
169	0xbb9c8c68	-0.00477748
170	0xbcf22e2b	-0.02956303
171	0xbc84e774	-0.016223647
172	0x3c154338	0.0091102645
173	0xbc23b021	-0.009990723
174	0x3b911f4f	0.004428781
175	0xbd174123	-0.036927354
176	0x3c873629	0.016505318
177	0xbcbfe244	-0.023423322
178	0xbcc58446	-0.024110924
179	0x3bf6fd7b	0.0075375414
180	0xbd0f627a	-0.035006024
181	0xba52d86c	-0.00080431136
182	0x3bca4d5e	0.0061737737
183	0x3b286da7	0.0025700124
184	0x3cac2bfe	0.02101707
185	0xbaf7dbeb	-0.0018910145
186	0x3c007d61	0.007842393
187	0xbd6651c0	-0.056230307
188	0x3c955588	0.018229261
189	0x3cbd8658	0.02313535
190	0x3c36800e	0.011138929
191	0xbc857f26	-0.01629598
192	0x3c3eeee9	0.01165364
193	0xba81fce8	-0.0009917291
194	0x3be7657f	0.00706166
195	0xbc3f9784	-0.011693839
196	0x3c1c0e55	0.009524901
197	0x3ca279c1	0.019833447
198	0x3ca8f610	0.020625144
199	0xbc6d643b	-0.014489229
200	0x3c0f0f88	0.00873173
201	0x3c3da4d5	0.011574944
202	0x3ce2d54b	0.027689597
203	0x3b223a8f	0.0024754142
204	0xbc13fc8e	-0.009032382
205	0x3cbab95e	0.022793468
206	0xbd2008ab	-0.039070766
207	0x3c449f7f	0.012000917
208	0x3c137bb0	0.009001657
209	0xbbd38cf9	-0.0064560142
210	0xbb16d489	-0.0023014864
211	0xbcdad51c	-0.026712947
212	0xbd6b6c73	-0.057476472
213	0x3c3fa1ec	0.01169632
214	0xbb3d1ee4	-0.0028857524
215	0xbc48c54f	-0.012254073
216	0x3cb0d0b0	0.021583885
217	0x3bb4ed72	0.0055214697
218	0x3cb7c3fe	0.022432324
219	0x3cb2fbcf	0.021848587
220	0xbb0fc700	-0.0021938682
221	0x3c0fc524	0.008775029
222	0x3b84f1b1	0.004057132
223	0x3c9e123d	0.019295806
224	0x3d0b2e3f	0.03397965
225	0x3ccec246	0.025239121
226	0xbc499b67	-0.012305117
227	0xbc0105d3	-0.007874924
228	0xbc1d349b	-0.009595062
229	0xbbd8ff15	-0.006622205
230	0x3c06e092	0.008232253
231	0x3d014981	0.03156424
232	0x3d04c744	0.032416597
233	0x3d6e455d	0.05817162
234	0x3d10cd2c	0.035351917
235	0xbcd4c5c0	-0.0259732
236	0x3c02deaa	0.007987658
237	0xba97369b	-0.001153666
238	0xbd76680d	-0.060157824
239	0x3d41660f	0.04721647
240	0x3cbca578	0.02302812
241	0xbb89e7b0	-0.0042085275
242	0xbbd4d8ca	-0.00649557
243	0x3a0c95c3	0.00053628924
244	0xbbd62b96	-0.0065359576
245	0xbc077a5a	-0.008268917
246	0x39681747	0.00022133916
247	0x3c8a3278	0.016869769
248	0xbc1cb56b	-0.009564738
249	0xbb4336da	-0.0029787333
250	0xbb3ddd53	-0.002897103
251	0x3bcae4e1	0.0061918353
252	0xbc76bb7c	-0.015059348
253	0xbc995bf0	-0.018720597
254	0xbbea113e	-0.0071431687
255	0x3c072af7	0.00824999

network.0.bias f4 [128]
0	0xbd10d9e4	-0.035364047
1	0xbe0bdad7	-0.136577
2	0xbca04791	-0.019565376
3	0xbd1fb996	-0.038995348
4	0xbd11c279	-0.035585854
5	0xbdd02fda	-0.10165377
6	0xbb169ecb	-0.0022982832
7	0xbddc92b0	-0.10770166
8	0xba8e521f	-0.0010858214
9	0xbdddbf76	-0.10827534
10	0xbe0a942f	-0.1353309
11	0xbd257201	-0.040391926
12	0xbcd7d20d	-0.026345277
13	0x3a8cb080	0.0010733753
14	0xbd370f98	-0.044692606
15	0xbd592527	-0.053013947
16	0xbced9d7b	-0.029005757
17	0x3a9ad1e8	0.0011811825
18	0xbdf4c7f6	-0.11952202
19	0xbdf3c380	-0.11902523
20	0xbd945b6a	-0.07243998
21	0x3b175308	0.0023090262
22	0xbdfddf65	-0.12396125
23	0xbdbec0ad	-0.09314094
24	0xbc9549ff	-0.01822376
25	0xbd216255	-0.039400417
26	0xbd3f8990	-0.04676205
27	0xbd521342	-0.051287897
28	0xbaedc4f6	-0.0018140364
29	0xbc83abc4	-0.016073115
30	0xbd4e514c	-0.0503705
31	0x3b6e4665	0.0036357876
32	0xbd9fd4f1	-0.07804287
33	0xbd8fc718	-0.07020396
34	0xbcbfd8b3	-0.02341876
35	0x3bf4bff1	0.0074691703
36	0xbcf9d015	-0.030494729
37	0xb9de63d2	-0.00042417512
38	0xbd6e3391	-0.058154646
39	0xbcf3c2c9	-0.029755967
40	0xbdb5ffce	-0.088866815
41	0xbd9c6be6	-0.076377675
42	0x3b049853	0.0020232394
43	0xbd28d53d	-0.041218985
44	0xbd11ad39	-0.03556559
45	0xbc9835d6	-0.018580358
46	0xbdcfb416	-0.101417705
47	0x3cb8d91e	0.022564467
48	0xbcca6284	-0.024705179
49	0xbc98423f	-0.018586276
50	0xbd0df973	-0.03466172
51	0xbd8f98c4	-0.070115596
52	0xbd3b9a82	-0.045801647
53	0xbde8b7ed	-0.11363206
54	0xb8056ac2	-3.1809097e-05
55	0xbc5e3e2a	-0.013564626
56	0xb8422f19	-4.6297067e-05
57	0xba3a9f53	-0.0007119078
58	0xbd2d0bfa	-0.04224775
59	0xbd81db9a	-0.06340714
60	0xbd43214b	-0.047639173
61	0xbdb06ea7	-0.08614855
62	0xbd4c93ab	-0.049945515
63	0x39ff8880	0.0004873909
64	0xbcc455f8	-0.023966774
65	0xbd49c9f8	-0.049264878
66	0xbd92727b	-0.07150742
67	0xbddac854	-0.10682741
68	0xbc080022	-0.008300813
69	0xbdfaac13	-0.12239852
70	0xbc57fbfe	-0.013182638
71	0xbc00293b	-0.00782233
72	0xbe256a2a	-0.1615378
73	0xbd4e3793	-0.05034597
74	0xbd7caa1a	-0.06168566
75	0xbd326c53	-0.043560337
76	0xbd88cc2b	-0.06679567
77	0xbd815f4c	-0.063170046
78	0xbb0e69b8	-0.0021730494
79	0xbd130d9d	-0.035901655
80	0xbd97d55c	-0.07413742
81	0xb91c9c6c	-0.00014935591
82	0xb9b49119	-0.00034440382
83	0xbce9f17a	-0.028557528
84	0x3a160f95	0.0005724368
85	0xbd09bc08	-0.033626586
86	0xbda1b9e3	-0.07896783
87	0xba42c6c2	-0.000743013
88	0xbc8a745f	-0.016901193
89	0xbdda5eb8	-0.106625974
90	0xbce5c94d	-0.02805009
91	0xbd7e2454	-0.062046364
92	0xbe45b786	-0.1930829
93	0xbdeb0fbd	-0.11477611
94	0x3d03abdf	0.03214633
95	0xbd83d97e	-0.06437968
96	0xbcdb70f0	-0.026787251
97	0xbdd1f6c0	-0.10252142
98	0xbdb44eab	-0.08804067
99	0xbb481c4e	-0.003053445
100	0x391834a8	0.00014515466
101	0xbd98f6a5	-0.07468919
102	0xba9a43bf	-0.0011769457
103	0xbbc1745c	-0.0059037637
104	0x3d136973	0.035989236
105	0xbd790ae1	-0.06080139
106	0xbca871b9	-0.02056204
107	0xbac81d86	-0.0015267588
108	0xbdc2bd61	-0.095087774
109	0xbca90a90	-0.02063492
110	0xbdf4d61c	-0.119549006
111	0x3b462a04	0.0030237446
112	0xbd4be62c	-0.049780056
113	0xbd8ad166	-0.06778221
114	0xbdfb1a5a	-0.122608855
115	0xbcd6d27f	-0.02622342
116	0xbd9a2f7d	-0.07528589
117	0xbcd72831	-0.026264282
118	0xbd5ce3ca	-0.053928174
119	0xbe24ac16	-0.1608127
120	0xbd82f723	-0.06394794
121	0xbd396c24	-0.045269147
122	0x395f9df9	0.00021325787
123	0xbd56ff90	-0.052489817
124	0xbd73a63a	-0.059484698
125	0xbadedc17	-0.0017002848
126	0xbdc1805d	-0.094483115
127	0xb980a85d	-0.00024539503

network.2.weight f4 [128]
0	0x3da1e46d	0.07904897
1	0x3d97197a	0.07377906
2	0x3d8710d4	0.065950066
3	0x3d7977a7	0.060905125
4	0x3da4759d	0.080302455
5	0x3dceb16d	0.10092435
6	0xb98c492e	-0.00026757404
7	0x3da8ec5b	0.08248206
8	0x39cb8fe4	0.00038826384
9	0x3da69cbe	0.08135365
10	0x3dab1a33	0.083546065
11	0x3d688f91	0.05677754
12	0x3d8dd7ce	0.06925927
13	0x384cf1f6	4.8862734e-05
14	0x3cdc8366	0.026918124
15	0x3d9a9daf	0.07549607
16	0x3d2556bd	0.040365923
17	0xb843d365	-4.66885e-05
18	0x3db52aca	0.08846052
19	0x3d9fc580	0.07801342
20	0x3d6f9602	0.058492668
21	0x39968c3f	0.0002871472
22	0x3dbf2a8b	0.09334286
23	0x3d9a1bab	0.075248085
24	0x3d93413e	0.07190178
25	0x3da6fd7f	0.08153819
26	0x3d820125	0.063478746
27	0x3d73402d	0.059387375
28	0x3d30077c	0.042975888
29	0x3d1cfe2f	0.038328346
30	0x3d9dfff9	0.077148385
31	0x3da193ae	0.07889496
32	0x3dae98af	0.08525216
33	0x3da74811	0.081680425
34	0x3d5ba65f	0.05362546
35	0x3d8dfd80	0.06933117
36	0x3d972d5c	0.073816985
37	0x3db4b850	0.08824217
38	0x3d84c6eb	0.06483253
39	0x3d84f88a	0.064927176
40	0x3d7b54ae	0.061360054
41	0x3da3114e	0.07962285
42	0xba37e337	-0.00070147536
43	0x3d7f7f73	0.062377404
44	0x3d9cb20b	0.076511465
45	0x3d9fd6c7	0.078046374
46	0x3db2cef5	0.0873088
47	0x3d9f5b0a	0.07781036
48	0x3da1b9e3	0.07896783
49	0x3d6f32eb	0.05839817
50	0x3da32e61	0.079678304
51	0x3d8d63a0	0.069037676
52	0x3d90097b	0.07033058
53	0x3db9eb53	0.09078088
54	0xb998036b	-0.00028994246
55	0x3db64cf0	0.089013934
56	0x3a66777d	0.0008791609
57	0x3907f870	0.00012967153
58	0x3d8391fc	0.06424329
59	0x3dabc75d	0.08387635
60	0x3d654184	0.055970684
61	0x3d9f5064	0.07779005
62	0x3d74cbce	0.059764676
63	0x3869457e	5.561625e-05
64	0x3d947a27	0.07249861
65	0x3daa7569	0.083231755
66	0x3d51d51f	0.05122864
67	0x3dad952e	0.084757194
68	0x3dbf2c66	0.0933464
69	0x3daa8a00	0.08327103
70	0x3d8fa59d	0.0701401
71	0x3d8db76e	0.06919752
72	0x3dc62e03	0.09676745
73	0x3daac0d5	0.08337561
74	0x3da492ef	0.08035838
75	0x3db39911	0.087694295
76	0x3d8043bc	0.06262919
77	0x3d8a7924	0.06761387
78	0xba48b277	-0.0007655988
79	0x3d976a28	0.073932946
80	0x3dcda371	0.100409396
81	0xb9a119dd	-0.00030727583
82	0xb65da42c	-3.3027127e-06
83	0x3dc932dc	0.09824154
84	0x39a5afca	0.00031602225
85	0x3d78712c	0.060654804
86	0x3da16d55	0.078821816
87	0xb9a28af5	-0.0003100258
88	0x3db0a98d	0.08626089
89	0x3da35521	0.079752214
90	0x3d205b1f	0.0391494
91	0x3db0fe2f	0.08642232
92	0x3d6cd180	0.057816982
93	0x3d85eb18	0.06538981
94	0x3d8a8920	0.06764436
95	0x3d963658	0.07334584
96	0x3d818a19	0.06325168
97	0x3d9dc738	0.077040136
98	0x3dab716f	0.08371245
99	0xb99a1b3d	-0.00029393463
100	0x39c219ca	0.00037021778
101	0x3d7b9153	0.06141789
102	0xb9ac77cd	-0.00032895655
103	0x3d5d95de	0.054098003
104	0x3dad8d17	0.084741764
105	0x3d37c76d	0.04486792
106	0x3d86beb9	0.06579346
107	0x3947aa35	0.00019041526
108	0x3d909db8	0.070613325
109	0x3da9cab8	0.08290619
110	0x3dab148a	0.08353527
111	0x3b1dbc87	0.002406867
112	0x3d879860	0.0662086
113	0x3d8fe60c	0.070263
114	0x3dcd4dad	0.10024581
115	0x3d53bf0e	0.051695876
116	0x3dc87831	0.0978855
117	0x3d8dc109	0.06921584
118	0x3d97faad	0.074208595
119	0x3da20590	0.07911217
120	0x3d8c0614	0.06837097
121	0x3da3bacd	0.07994614
122	0xb95331b7	-0.00020141048
123	0x3db8c104	0.0902119
124	0x3d902a76	0.07039349
125	0x3d6f72ad	0.058458973
126	0x3db470ce	0.08810578
127	0xb92db0b3	-0.00016564391

network.2.bias f4 [128]
0	0x3cad4c04	0.021154411
1	0x394ac124	0.00019336172
2	0xbbb8ef2d	-0.0056437463
3	0xbbeb49f8	-0.0071804486
4	0xbbc41706	-0.00598419
5	0x3cc38c9b	0.023870757
6	0xb89a3a3c	-7.354139e-05
7	0x3c096b2a	0.008387366
8	0x3a298d9e	0.0006467941
9	0x3c17c854	0.009264071
10	0xbb9bd558	-0.004755657
11	0xba52b304	-0.00080375397
12	0x3c82c86c	0.01596471
13	0x39eaa77e	0.0004475675
14	0xbbbb2eac	-0.005712351
15	0x3a676769	0.000882736
16	0xbb018b4f	-0.0019766872
17	0x3a260393	0.000633293
18	0x3bfff7db	0.007811529
19	0xbc294a05	-0.010332589
20	0x3b276908	0.0025544781
21	0x3b181695	0.002320682
22	0x3b37622f	0.0027982106
23	0x3b1069e3	0.002203577
24	0x3ced0275	0.028931836
25	0x3c772381	0.015084148
26	0xbb8b79f7	-0.0042564827
27	0x3c39998e	0.011328114
28	0xbbb9ed3f	-0.005674034
29	0xbb2a67c6	-0.0026001795
30	0x38c61750	9.445718e-05
31	0x3cc78688	0.024356142
32	0x3c4c8df2	0.012485014
33	0x3c68aea7	0.014201797
34	0xbb90f0da	-0.004423243
35	0x3c21e623	0.009881529
36	0x3c201ace	0.009772016
37	0x3d27535e	0.04085099
38	0xba68f7ff	-0.0008887052
39	0x3bace842	0.0052767107
40	0x3bebbd80	0.007194221
41	0x3b7105e3	0.003677719
42	0xb869d62e	-5.5751e-05
43	0x3b359a7e	0.0027710493
44	0x3c04897b	0.0080894185
45	0x3cc3b61a	0.023890544
46	0x3c426124	0.01186398
47	0x3ccab5c2	0.024744872
48	0x3cb1d350	0.021707207
49	0xbc4f9f46	-0.012672251
50	0x3cde9eeb	0.027175387
51	0x3b8c4bbd	0.0042814896
52	0x3bf4a7f7	0.007466312
53	0x3b005125	0.0019579616
54	0x3766b60c	1.3751454e-05
55	0x3c83f26a	0.016106803
56	0x39fb5d2a	0.00047943863
57	0x3ad69440	0.0016371086
58	0x3b5121f0	0.0031911097
59	0x3c3c32f2	0.011486756
60	0x39ca8435	0.00038626944
61	0xb9625fe0	-0.00021588756
62	0xbbd74103	-0.0065690293
63	0xba7a1ae0	-0.0009540748
64	0x3c795554	0.015218098
65	0x3c993956	0.018704098
66	0x3c0dc54d	0.008652997
67	0x3bb07bb7	0.0053858417
68	0x3cd9af54	0.02657286
69	0x3c65f633	0.014035749
70	0x3bcddfd1	0.0062827845
71	0x3c883737	0.016627891
72	0xbb9289cf	-0.0044719945
73	0x3ab90ed4	0.0014118799
74	0x3c57cebd	0.013171849
75	0x3c65c143	0.014023128
76	0xba7814a1	-0.0009463523
77	0xbbe0b20c	-0.0068571623
78	0xb9a31c8d	-0.00031111055
79	0x3c69cfb9	0.014270716
80	0x3ca545d3	0.020174896
81	0x3ac5a4fc	0.0015079076
82	0x391356fb	0.00014051415
83	0x3d44088d	0.047859717
84	0xbaa94d9a	-0.0012916804
85	0x3c578f35	0.013156702
86	0x3c92af33	0.017905807
87	0x3a70c4e6	0.00091846136
88	0x3c502583	0.012704256
89	0x3bc94578	0.0061423145
90	0xba866bbe	-0.0010255498
91	0x3b98cebe	0.0046633175
92	0xbcf2acb8	-0.029623374
93	0xbc1f2411	-0.009713189
94	0x3c0d0a96	0.008608481
95	0x3c7521de	0.014961688
96	0x3c43d4d1	0.011952595
97	0x3c377dfd	0.011199472
98	0x3c246dc2	0.010035934
99	0x3b5ce27b	0.0033704329
100	0xb96144ad	-0.00021483256
101	0xb9719924	-0.000230406
102	0x3aa4ab9a	0.0012563348
103	0x3b39c2d3	0.0028344884
104	0x3d031a3a	0.032007433
105	0xbba13b59	-0.004920405
106	0x3c20bf1a	0.009811187
107	0x39d7aab8	0.0004113519
108	0xbc8161dd	-0.015793735
109	0x3bbf77dc	0.005843146
110	0x39ebf6c6	0.00045006553
111	0xbb0d19c2	-0.0021530245
112	0x3b5964c6	0.0033171638
113	0xbbe7a5e4	-0.0070693363
114	0x3c3e8dad	0.011630458
115	0x3b8f44da	0.0043722214
116	0x3cc7f8db	0.024410656
117	0x3bfeffa3	0.007781939
118	0x3cbae299	0.022813128
119	0x3a9e6abe	0.0012086255
120	0xba6ea090	-0.0009102905
121	0x3ca60e06	0.020270359
122	0xba8cc7d2	-0.0010740703
123	0x3c566b26	0.01308707
124	0x3be77a6b	0.007064154
125	0xbab55e7f	-0.0013837366
126	0x3ca81137	0.020516021
127	0x39ff0a47	0.00048645047

network.2.running_mean f4 [128]
0	0x3cf328ad	0.029682482
1	0x3c3574e2	0.01107523
2	0x3d66000c	0.05615239
3	0x3ce45f17	0.027877374
4	0x3d52e54a	0.0514882
5	0x3c984917	0.01858954
6	0x3b48c7c2	0.0030636643
7	0x3ccb4342	0.024812344
8	0x3b626643	0.0034545816
9	0x3cc6d931	0.024273487
10	0x3c0a8390	0.0084542185
11	0x3d4db444	0.050220743
12	0x3cef0720	0.029178202
13	0x3bf59388	0.0074943937
14	0x3c35be61	0.011092753
15	0x3d0bca4b	0.03412847
16	0x3d02bfdc	0.031921253
17	0x3bd7df03	0.0065878644
18	0x3c3ef4fc	0.0116550885
19	0x3c929f2c	0.017898165
20	0x3ca0cd52	0.019629154
21	0x3c33da34	0.010977317
22	0x3cd05219	0.025429772
23	0x3cc60d91	0.02417639
24	0x3d34b313	0.04411609
25	0x3cabe2c1	0.020982148
26	0x3d5d6740	0.054053545
27	0x3cc8bb55	0.02450339
28	0x3d1faf91	0.038985793
29	0x3d1ff416	0.039051138
30	0x3cf6b8bb	0.030117383
31	0x3d5f9be9	0.054592047
32	0x3cdb3afe	0.026761528
33	0x3d0fe694	0.035132006
34	0x3d370a7d	0.044687737
35	0x3d89aa07	0.06721883
36	0x3d1bbf1a	0.038024046
37	0x3d5cea30	0.053934276
38	0x3d4199bf	0.047265764
39	0x3d12b4c2	0.035816915
40	0x3cbd1068	0.023079112
41	0x3d018ecf	0.031630334
42	0x3c4234f0	0.011853442
43	0x3d446b0f	0.04795366
44	0x3d97fd88	0.07421404
45	0x3d234eec	0.039870188
46	0x3c67f245	0.014156883
47	0x3d931497	0.071816616
48	0x3d4b7b5d	0.049678195
49	0x3d5636f6	0.05229851
50	0x3d621fde	0.055206172
51	0x3c8436f1	0.01613948
52	0x3ca38226	0.01995952
53	0x3c845cf1	0.0161576
54	0x3b5e18d5	0.0033889313
55	0x3d6ef628	0.05834022
56	0x3bab1746	0.0052212803
57	0x3b635910	0.0034690537
58	0x3d42441d	0.04742824
59	0x3c847457	0.016168756
60	0x3cd77737	0.026301963
61	0x3cef77ce	0.029231932
62	0x3d0e95e2	0.03481091
63	0x3be5da17	0.0070145237
64	0x3d618f4f	0.05506831
65	0x3d39cf8d	0.04536395
66	0x3cb9fd20	0.022703707
67	0x3c6800b9	0.014160329
68	0x3d4dfb15	0.05028828
69	0x3c2bdff1	0.0104904035
70	0x3d3a1761	0.045432452
71	0x3d839b1e	0.06426071
72	0x3c915070	0.01773855
73	0x3cab7be1	0.020933094
74	0x3d4376c2	0.04772068
75	0x3d8a4eb4	0.06753293
76	0x3c8d1b3d	0.017224902
77	0x3d37fd71	0.044919435
78	0x3b97999e	0.004626467
79	0x3d30a346	0.04312446
80	0x3cf7d6c7	0.030253781
81	0x3b6f2591	0.0036490897
82	0x3af61be4	0.0018776623
83	0x3d52370e	0.051322035
84	0x3c3fae3d	0.0116992565
85	0x3d09fd62	0.03368891
86	0x3d43356c	0.04765837
87	0x3ae6bfa9	0.0017604727
88	0x3d32cf7a	0.043654896
89	0x3cc7e980	0.024403334
90	0x3cadb982	0.021206621
91	0x3cb68c5c	0.022283725
92	0x3c874ece	0.01651707
93	0x3c939ee9	0.01802011
94	0x3dac071b	0.08399793
95	0x3cb2e377	0.02183698
96	0x3d5eec53	0.054424595
97	0x3d023767	0.031791117
98	0x3d1d1bd9	0.038356636
99	0x3b48c09f	0.003063239
100	0x3bccd3cb	0.0062508336
101	0x3c961dda	0.018324781
102	0x3b561ffe	0.0032672877
103	0x3d494102	0.049134262
104	0x3dc78a26	0.097431466
105	0x3cd30e22	0.025763575
106	0x3d42e09f	0.047577497
107	0x39b31fb9	0.00034165176
108	0x3cac7e16	0.021056216
109	0x3d14ec5e	0.03635823
110	0x3c5d9bbc	0.0135258995
111	0x3c70a186	0.014686948
112	0x3d5a5ca9	0.053311024
113	0x3cad44ad	0.021150911
114	0x3cc23e38	0.023711309
115	0x3d01379c	0.031547174
116	0x3cee6c9a	0.02910452
117	0x3d6a2276	0.05716177
118	0x3cdefe23	0.027220791
119	0x3c102e46	0.008800095
120	0x3d29fb42	0.041499384
121	0x3d008609	0.031377826
122	0x3c1ad854	0.009450991
123	0x3d163914	0.036675528
124	0x3ce20fce	0.027595427
125	0x3d2e988c	0.04262595
126	0x3cb1eef4	0.021720387
127	0x3b38a6c2	0.0028175567

network.2.running_var f4 [128]
0	0x3ae9b526	0.0017830476
1	0x3a6ceb49	0.0009037746
2	0x3b8a50e3	0.004221068
3	0x3af171b2	0.0018420725
4	0x3c4ead24	0.012614522
5	0x3a99f3ec	0.0011745668
6	0x38603962	5.3459204e-05
7	0x3ae84a67	0.0017722369
8	0x385f270e	5.3203716e-05
9	0x3b027cae	0.001991074
10	0x3a0a4385	0.00052743434
11	0x3c507ec8	0.0127255395
12	0x3b325952	0.0027213884
13	0x39361007	0.00017362843
14	0x3a400317	0.0007324679
15	0x3c0dda7f	0.008658051
16	0x3ba565a7	0.0050475183
17	0x388854fe	6.5008164e-05
18	0x3a0897e4	0.0005210622
19	0x3b06794b	0.0020519074
20	0x3b012892	0.001970802
21	0x39903f91	0.0002751318
22	0x3b2516c7	0.0025190578
23	0x3b2f7bd4	0.0026776688
24	0x3b2f1445	0.0026714962
25	0x3a81d8e7	0.0009906561
26	0x3bd62017	0.006534587
27	0x3b338df3	0.002739784
28	0x3bdbff34	0.006713772
29	0x3bc6bfd4	0.006065348
30	0x3b5485d4	0.00324284
31	0x3b979483	0.0046258583
32	0x3b06a820	0.0020546988
33	0x3b3fac20	0.0029246882
34	0x3c271405	0.010197644
35	0x3b24cae3	0.0025145344
36	0x3afabdb2	0.001913002
37	0x3b89700b	0.0041942648
38	0x3c265b34	0.01015358
39	0x3b56bb1f	0.0032765341
40	0x3ac2f820	0.0014874972
41	0x3b36894e	0.0027852836
42	0x392e54bf	0.00016625503
43	0x3bdf3d46	0.0068127243
44	0x3ba85c33	0.005137944
45	0x3bf4ce0b	0.0074708513
46	0x3b05d1fc	0.002041935
47	0x3bd5ee20	0.006528631
48	0x3ba326ec	0.004979005
49	0x3b82bc8a	0.0039897608
50	0x3c112c78	0.0088607
51	0x3a876f5d	0.0010332871
52	0x3b0a46fd	0.0021099441
53	0x3ab379d1	0.001369292
54	0x38ace664	8.244513e-05
55	0x3bc469af	0.005994044
56	0x39176b00	0.00014440343
57	0x38b957d0	8.837844e-05
58	0x3bd07822	0.006361977
59	0x3ad8de68	0.0016545774
60	0x3b29f848	0.002593534
61	0x3b621dfe	0.003450274
62	0x3b9af246	0.0047285883
63	0x398a1b5f	0.00026341804
64	0x3b5f0637	0.0034030804
65	0x3b8ecb9e	0.004357769
66	0x3b8ab154	0.004232565
67	0x3a66f92f	0.0008810935
68	0x3ba4d7c1	0.0050306027
69	0x3ac5f45f	0.0015102735
70	0x3bf232a5	0.007391291
71	0x3c1323d8	0.008980714
72	0x3ac05a0d	0.0014675275
73	0x3adf562b	0.001703923
74	0x3b8997a9	0.0041989875
75	0x3c0a305b	0.00843438
76	0x3aa970bb	0.0012927273
77	0x3ba1f83c	0.004942922
78	0x3925031a	0.00015736782
79	0x3b5523d3	0.0032522574
80	0x3b1e7714	0.0024179863
81	0x37a63f38	1.981818e-05
82	0x37f742b2	2.9475752e-05
83	0x3b945f36	0.0045279516
84	0x3a6c4c96	0.0009014098
85	0x3b20553e	0.002446487
86	0x3b839a04	0.004016163
87	0x3788384e	1.6238682e-05
88	0x3b605304	0.0034229169
89	0x3ad37f20	0.0016135909
90	0x3b21ddf4	0.0024698945
91	0x3ae3bc62	0.0017374868
92	0x3abc34e7	0.0014359028
93	0x3b147075	0.0022650037
94	0x3b84e583	0.0040556802
95	0x3a9116f0	0.0011069458
96	0x3baa4037	0.0051956433
97	0x3baa27fc	0.005192755
98	0x3b66cd89	0.0035217723
99	0x38b2e850	8.530973e-05
100	0x38fdd343	0.00012103331
101	0x3af415ed	0.0018622257
102	0x3890afe5	6.899218e-05
103	0x3bd6d4ea	0.006556143
104	0x3be396c5	0.0069454634
105	0x3bbddb41	0.0057939594
106	0x3bd08a1f	0.0063641216
107	0x35dabaeb	1.6296666e-06
108	0x3ae7888f	0.0017664599
109	0x3bec1538	0.007204678
110	0x3a42f361	0.0007436779
111	0x39d30ba6	0.00040253735
112	0x3c1ea074	0.00968181
113	0x3afcff2b	0.001930212
114	0x3b31db46	0.0027138754
115	0x3b7ee1f2	0.0038891998
116	0x3aa8ed26	0.0012888059
117	0x3be3b921	0.0069495593
118	0x3b03a4bf	0.002008721
119	0x3a26fba8	0.0006369897
120	0x3bec4dae	0.0072114086
121	0x3afc5a7c	0.0019253041
122	0x393ec5a0	0.00018193433
123	0x3b931bbf	0.0044893916
124	0x3b14468c	0.0022625057
125	0x3be66fdb	0.007032377
126	0x3b131e42	0.0022448455
127	0x379d6183	1.8761266e-05

network.4.weight f4 [64, 128]
0	0x3b6c33bf	0.0036041585
1	0xbc764b4a	-0.015032599
2	0x3c05a865	0.008157824
3	0xbc67db41	-0.014151395
4	0x3bb0a69f	0.0053909565
5	0xbc81469a	-0.015780736
6	0x3a7063e5	0.0009170159
7	0x3b1a18fa	0.0023513422
8	0x3a7ab271	0.0009563333
9	0x3ced7b32	0.028989408
10	0x3c9802b3	0.018555975
11	0xbd08ab0a	-0.03336624
12	0xbb9cbe6d	-0.0047834427
13	0x3adde86d	0.001693023
14	0xbc1c4de8	-0.009540059
15	0xbc3ac462	-0.01139936
16	0xbc512955	-0.012766202
17	0xbaa537ff	-0.0012605189
18	0xbc8cedc9	-0.017203229
19	0xbd1be572	-0.038060613
20	0xbb108bf9	-0.0022056086
21	0x3b819f8b	0.0039557866
22	0x3cd076f5	0.025447348
23	0xbcceb597	-0.025233073
24	0x3c253e5b	0.0100856675
25	0xbba8e2c8	-0.0051539876
26	0xbcc06de5	-0.023489902
27	0xbc830c01	-0.015996935
28	0xbbb8c88f	-0.005639143
29	0xbc7ebaf1	-0.0155475
30	0x3c31cf5b	0.01085266
31	0x3c649f56	0.013954004
32	0xbbd96f96	-0.0066356165
33	0xbbd890cb	-0.0066090575
34	0x3b41f544	0.0029595653
35	0x3b770f74	0.003769842
36	0xbc3f63b0	-0.011681482
37	0x3d272ae7	0.0408124
38	0x3b791be7	0.0038011016
39	0xbc478519	-0.012177729
40	0x3c41e6bc	0.0118347965
41	0xbc85e45e	-0.016344246
42	0xba0c8d0d	-0.00053615944
43	0x3c7b308c	0.015331399
44	0xbcbbefab	-0.022941431
45	0x3bd15cc9	0.0063892347
46	0xba2faafb	-0.0006701198
47	0xbd206056	-0.039154373
48	0x3ca9cac6	0.020726573
49	0xbbdd7ffd	-0.006759642
50	0xbc7d0027	-0.015441931
51	0xbc13842f	-0.009003683
52	0xbccd7d82	-0.02508426
53	0x3c6416b2	0.013921427
54	0x3a57c010	0.00082302187
55	0x3bae3102	0.005315901
56	0xba49f266	-0.00077036617
57	0xbad2d87b	-0.0016086245
58	0xbd25a273	-0.040438127
59	0xbc097eee	-0.008392079
60	0xbc8f07f4	-0.017459847
61	0x3d094750	0.033515275
62	0xbc93b756	-0.018031757
63	0x3a64e532	0.00087316625
64	0x3c8f185f	0.017467676
65	0xbc0b0578	-0.008485191
66	0xbafd364c	-0.001931855
67	0x3be17d42	0.006881387
68	0x3cde4bfb	0.02713584
69	0xbca6238d	-0.020280624
70	0x3d35ce7d	0.044386376
71	0x3bfde7e2	0.00774859
72	0xbb1d86cc	-0.0024036644
73	0x3c75585a	0.014974678
74	0xbb4d902e	-0.0031366455
75	0xbc475f51	-0.012168721
76	0x3b070d21	0.002060719
77	0xb7dad12d	-2.608503e-05
78	0x3a394b5e	0.00070684205
79	0x3c08ca3c	0.008348998
80	0xbbb6cfb8	-0.005578961
81	0x3a700459	0.0009155921
82	0xb91c97af	-0.00014933826
83	0x3b3f9bd0	0.0029237159
84	0xbb3b2247	-0.0028554366
85	0x3cb26196	0.021775048
86	0x3c96c498	0.01840429
87	0x39bceba6	0.00036033726
88	0xbc11b86c	-0.008894067
89	0xbc7610be	-0.01501864
90	0x3aef6739	0.0018265016
91	0xbd01123a	-0.031511523
92	0x3d33357b	0.043752175
93	0xbcb98b02	-0.022649292
94	0xbc70c315	-0.014694949
95	0xb9d8b2ae	-0.00041331857
96	0x3d07345c	0.03300892
97	0xbcbbd19e	-0.022927102
98	0xbcc8a771	-0.024493905
99	0xbb0d22f9	-0.0021535738
100	0xb9a0f3d6	-0.0003069925
101	0xbc0a9c61	-0.008460135
102	0xbab4eff1	-0.0013804418
103	0x3b97cbc8	0.004632447
104	0xbc75053b	-0.01495486
105	0x3ba26494	0.0049558375
106	0xbb01109c	-0.0019693738
107	0x3a2daa6d	0.00066248217
108	0xbc8e2212	-0.01735023
109	0x3d3d66e7	0.046240713
110	0xbcf1dda2	-0.029524628
111	0x3ae7a8bc	0.0017674188
112	0xbc79205c	-0.015205469
113	0x3b2023c6	0.0024435385
114	0x3b2def40	0.002654031
115	0x3b976682	0.004620374
116	0x3c9e2c85	0.019308338
117	0xbcaa7f60	-0.02081269
118	0xbc6679a1	-0.0140670845
119	0x3a7b7c1c	0.0009593384
120	0x3c57c1b8	0.013168745
121	0x3b891cba	0.0041843327
122	0xba993f4d	-0.0011691839
123	0x3b57d6b6	0.0032934374
124	0xbc5f6a90	-0.013636246
125	0xbad700b8	-0.0016403412
126	0xbbff3758	-0.00778858
127	0xb78064d6	-1.5305744e-05
128	0x3b55442d	0.0032541857
129	0x3b84d2f8	0.0040534697
130	0x3ba96ecc	0.0051706787
131	0xbbaa82de	-0.005203589
132	0xbc8482a3	-0.016175574
133	0xba8f8da5	-0.0010952248
134	0xb86e7aa6	-5.6857847e-05
135	0xbaf25ee2	-0.0018491412
136	0x39e4027b	0.00043489397
137	0xbb679382	-0.0035335724
138	0xbbabd19a	-0.0052434923
139	0x3c2c943f	0.0105333915
140	0xbcd7a3af	-0.026323168
141	0x392d29b6	0.00016514104
142	0xbc0e39d9	-0.008680784
143	0xbc52265d	-0.012826529
144	0xbbf25f58	-0.0073966198
145	0x3a102a86	0.00054995005
146	0x3b6c7a0f	0.0036083495
147	0xbb8828fa	-0.0041552754
148	0xbc1179bd	-0.008879122
149	0x3b3a2c8b	0.0028407897
150	0xbc986368	-0.018602088
151	0x3a183030	0.00058055203
152	0x3b9ee5b4	0.00484916
153	0x3c0e50f0	0.008686289
154	0x3ba43dc3	0.0050122454
155	0xbbf39dad	-0.007434568
156	0xbcc401ac	-0.023926578
157	0xbc942873	-0.018085694
158	0xbbb73bb4	-0.005591834
159	0x3be7d365	0.0070747607
160	0x3c2e287c	0.010629769
161	0xbc1aa09d	-0.009437707
162	0xbc975a0f	-0.01847556
163	0x3ccc16e9	0.024913268
164	0x3c4d5093	0.012531417
165	0x3c0b1e61	0.00849113
166	0xbba117fe	-0.00491619
167	0xbccee5a8	-0.025255993
168	0x3b8ff42b	0.0043931208
169	0x3ba412bb	0.0050071157
170	0x3aea791f	0.001788888
171	0xbc598e4d	-0.013278556
172	0xbaebab89	-0.0017980199
173	0xbb32fec7	-0.0027312504
174	0x3b2b039f	0.0026094688
175	0xbc3791e2	-0.011204215
176	0x3c24fe94	0.010070462
177	0xbbe0282d	-0.006840727
178	0xbc8e860f	-0.017397908
179	0xbbc7e56d	-0.0061003477
180	0xbc2714dc	-0.010197844
181	0xbc0b29e6	-0.008493876
182	0xba150cbd	-0.0005685797
183	0x3adc50d1	0.0016808753
184	0xba1380f1	-0.0005626819
185	0xba914a10	-0.0011084694
186	0xbc66c197	-0.014084241
187	0xbca6ed48	-0.020376816
188	0xbcd34e0a	-0.025794048
189	0xbb8211c0	-0.003969401
190	0xbc85f966	-0.016354274
191	0xbad8a7df	-0.0016529522
192	0x3c6089ce	0.01370473
193	0xbb46b5d2	-0.0030320776
194	0xbc9d76b4	-0.019221641
195	0xbc60b67f	-0.013715385
196	0x3ad14731	0.0015966651
197	0xbc17616e	-0.009239538
198	0xbb95223d	-0.0045512007
199	0x3b5c9059	0.0033655374
200	0x3ba848a5	0.005135613
201	0xbbe51933	-0.0069915294
202	0x3bcee141	0.0063134735
203	0xbca9c143	-0.020722037
204	0xbc1d9299	-0.009617471
205	0x3bc5e937	0.0060397643
206	0x3a1e87e0	0.00060474686
207	0x3c86b7d8	0.016445085
208	0x3bf6bcaf	0.007529817
209	0xb91b41f2	-0.00014806518
210	0xb8dd7219	-0.000105593535
211	0x3aa82e93	0.0012831263
212	0xba6976ce	-0.0008905948
213	0x3c122fb7	0.008922509
214	0x3ba08878	0.004899081
215	0x39cf00b7	0.0003948265
216	0xbc809c0a	-0.015699405
217	0x3b6f1d14	0.0036485838
218	0xbc28160b	-0.010259162
219	0xbbf44fc6	-0.007455799
220	0xb781d91d	-1.54791e-05
221	0xbbcdc8a2	-0.006280021
222	0x3c9dd563	0.01926679
223	0xbac84414	-0.0015279078
224	0x3a40b8d8	0.00073517626
225	0xbc382aa1	-0.011240632
226	0xbb7c694d	-0.0038514913
227	0x3aeeb1d5	0.0018210957
228	0x3a4ccf4b	0.00078128715
229	0xbabd909e	-0.0014462655
230	0x3abe3443	0.0014511425
231	0x3a27582e	0.0006383684
232	0xbb744640	-0.0037273318
233	0x3c6010bd	0.013675866
234	0xbba6037a	-0.0050663324
235	0xba444c0d	-0.0007488139
236	0xbc4598c4	-0.012060348
237	0x3b9d6e6a	0.004804422
238	0xba7bca03	-0.0009604992
239	0xba760b9b	-0.00093858846
240	0x3ad31461	0.0016104096
241	0xbbfea126	-0.0077706752
242	0xbc80a0c8	-0.015701666
243	0xbb8b1c7e	-0.00424534
244	0x3bcf892a	0.00633349
245	0xbba987d5	-0.005173663
246	0x3bd7f0c8	0.0065899827
247	0xbc2b5966	-0.010458326
248	0xbc95e624	-0.018298216
249	0x3b9e0204	0.0048220176
250	0xb9e27518	-0.0004319332
251	0xbc1211bb	-0.00891536
252	0x3b979dd7	0.0046269703
253	0xbca92720	-0.020648539
254	0xbbbd231b	-0.005772007
255	0x3a121972	0.00055732497

network.4.bias f4 [64]
0	0xbb5e8719	-0.0033955036
1	0xbb8a10af	-0.0042134146
2	0xbae34a28	-0.0017340826
3	0x3a75bd19	0.0009374186
4	0xbbad50bc	-0.0052891653
5	0xbc3f93aa	-0.011692921
6	0xbc885e7b	-0.016646614
7	0xbc23793c	-0.009977635
8	0xbaf832fe	-0.0018936095
9	0xbc29e99a	-0.010370636
10	0xba95801b	-0.0011405976
11	0xbc5ed8aa	-0.013601461
12	0xbc5965d0	-0.013268903
13	0xbc5573c4	-0.013028089
14	0x3b04ae98	0.0020245668
15	0xbd36c88f	-0.04462486
16	0xbc506fd2	-0.012721973
17	0xbbe2f1d5	-0.0069258013
18	0xb817caa0	-3.6189915e-05
19	0xbc87c1a6	-0.016571831
20	0xbc18d47f	-0.009328007
21	0x39015501	0.00012334065
22	0xbc042923	-0.008066448
23	0xbb4302c4	-0.0029756287
24	0xbccf6d7f	-0.025320766
25	0xbaa50a5d	-0.001259159
26	0xbc0aec24	-0.008479152
27	0xba696df0	-0.00089046266
28	0xbc887609	-0.016657846
29	0xbc222589	-0.009896644
30	0xbc874720	-0.016513407
31	0xbc469195	-0.01211967
32	0xba211339	-0.0006144527
33	0xbb2e7604	-0.0026620636
34	0xbc400c6d	-0.011721713
35	0x3a1b3e63	0.0005922077
36	0xbc475d0e	-0.012168182
37	0xbc51b17e	-0.012798665
38	0xbbabc908	-0.0052424707
39	0xbc4e5eb5	-0.012595822
40	0xbc734cce	-0.014849855
41	0xbc0690e7	-0.008213258
42	0xbc39e156	-0.011345228
43	0xba17c360	-0.0005789306
44	0xbbe5c944	-0.007012518
45	0xbc4fa1c8	-0.012672849
46	0xbbc714cf	-0.0060754786
47	0xbc09f43b	-0.0084200455
48	0xb9cc7a5d	-0.0003900108
49	0x3afc2865	0.0019238113
50	0xbc25acbf	-0.010111987
51	0xbc3749bd	-0.011187014
52	0xbc1fd574	-0.009755481
53	0xba8fcb26	-0.0010970577
54	0xbb568131	-0.0032730813
55	0xbb8e6b03	-0.004346253
56	0xbc919167	-0.017769529
57	0xbc0a9d45	-0.008460348
58	0xbca222e8	-0.019792035
59	0xbc18a8ee	-0.00931762
60	0xbcbc8c6b	-0.023016175
61	0xbbd88219	-0.0066073057
62	0xbb9ce892	-0.0047884667
63	0xbc509d56	-0.012732824

network.6.weight f4 [64]
0	0x3dfa19b6	0.12211935
1	0x3debf2d0	0.11520922
2	0x3ddae6f1	0.1068858
3	0x3dd66dab	0.10470136
4	0x3df8fb44	0.121573
5	0x3dd1e2cc	0.10248336
6	0x3dca8abc	0.09889743
7	0x3e0ea744	0.13930994
8	0x3df13bcd	0.11778984
9	0x3e00aac3	0.1256514
10	0x3dc88a81	0.097920425
11	0x3e09302e	0.13397285
12	0x3e075e65	0.13219602
13	0x3dee3268	0.11630708
14	0x3dcfe51a	0.101511195
15	0x3dd9ca0f	0.10634243
16	0x3de01110	0.109407544
17	0x3df7c705	0.12098507
18	0x3dd8a031	0.10577429
19	0x3dfc677c	0.123244256
20	0x3dbe37f0	0.09288013
21	0x3df739cf	0.12071573
22	0x3db7cac3	0.089742206
23	0x3dde578f	0.10856544
24	0x3df7da12	0.121021405
25	0x3e01ea8e	0.12687132
26	0x3e036576	0.12831673
27	0x3dc215ca	0.09476812
28	0x3dd21158	0.10257214
29	0x3dfb7fc9	0.122802325
30	0x3dca6a26	0.098835275
31	0x3e0508b4	0.12991601
32	0x3decd609	0.115642615
33	0x3dc60e13	0.09670653
34	0x3df89324	0.1213744
35	0x3de797e2	0.11308266
36	0x3e0f7b1a	0.14011803
37	0x3df89d19	0.12139339
38	0x3ddfaea5	0.10921983
39	0x3dba65dd	0.0910146
40	0x3deaddcd	0.114680864
41	0x3dd8f300	0.105932236
42	0x3df9773a	0.12180944
43	0x3dcf7ebd	0.10131595
44	0x3e037034	0.12835771
45	0x3dfbf121	0.12301851
46	0x3e037b97	0.12840115
47	0x3ddde37f	0.10834407
48	0x3dbb4aaf	0.09145104
49	0x3de3a267	0.1111496
50	0x3deedac7	0.11662822
51	0x3dd1c84f	0.10243284
52	0x3e04c828	0.12966979
53	0x3dd84d42	0.10561611
54	0x3dcba807	0.09944158
55	0x3dd30db8	0.10305351
56	0x3e064d25	0.13115366
57	0x3dd56c26	0.10421018
58	0x3dd3852e	0.103281364
59	0x3de66009	0.11248786
60	0x3ddd582a	0.108078316
61	0x3e04286f	0.12906049
62	0x3dff2167	0.12457543
63	0x3e0e1ba8	0.13877738

network.6.bias f4 [64]
0	0x3d204ba6	0.039134644
1	0x3d40cff6	0.047073327
2	0x3d3f1cd5	0.046658356
3	0x3d368f4d	0.044570256
4	0x3d161013	0.036636423
5	0x3ccca432	0.024980638
6	0x3c88dd2a	0.016707022
7	0x3d5f45a6	0.05450978
8	0x3d2c5c7f	0.0420804
9	0x3d318257	0.043337192
10	0x3c931d34	0.017958261
11	0x3d180f00	0.03712368
12	0x3d072928	0.032998234
13	0x3d2bd9eb	0.04195587
14	0x3d5b683f	0.053566214
15	0xbb9fdc50	-0.004878558
16	0x3d0e7152	0.03477604
17	0x3d01f51d	0.0317279
18	0x3d3205f6	0.043462716
19	0x3d1b3564	0.037892714
20	0x3c109215	0.008823891
21	0x3d4e8c1d	0.05042659
22	0x3ce1daf4	0.027570225
23	0x3d1f5536	0.038899623
24	0x3c37b5bb	0.0112127615
25	0x3d61e8f8	0.055153817
26	0x3d38eaaf	0.045145687
27	0x3b07f8e4	0.0020747716
28	0x3c37c4f7	0.011216394
29	0x3d0d6ee5	0.034529585
30	0x3c4295e9	0.011876562
31	0x3d556b35	0.052104194
32	0x3d59e27c	0.053194508
33	0x3ce31e95	0.027724544
34	0x3d45fe83	0.048338424
35	0x3d555445	0.05208232
36	0x3d1b8fe5	0.037979025
37	0x3d34a896	0.04410609
38	0x3cbcafd2	0.023033056
39	0x3c8c20c9	0.017105477
40	0x3d03cb04	0.032176033
41	0x3d1de00f	0.038543757
42	0x3d23547d	0.039875496
43	0x3d2dc816	0.042427145
44	0x3d6263dc	0.055271015
45	0x3d18ffca	0.037353314
46	0x3d510319	0.051028345
47	0x3d1377d6	0.036002956
48	0x3d00b1b9	0.03141949
49	0x3d42ac5c	0.047527656
50	0x3d60d270	0.05488819
51	0x3d326390	0.04355198
52	0x3d41a9a2	0.047280915
53	0x3d026249	0.031832013
54	0x3d1fe301	0.039034847
55	0x3d34963d	0.04408859
56	0x3cbaddd1	0.022810848
57	0x3d017bdc	0.031612262
58	0xbba8710b	-0.005140429
59	0x3d248a8a	0.040171184
60	0x3c69f54f	0.0142796775
61	0x3d424e5b	0.047438007
62	0x3d89c04e	0.06726132
63	0x3d2be38e	0.04196506

network.6.running_mean f4 [64]
0	0x3c517917	0.012785218
1	0x3bf571a2	0.0074903527
2	0x3c167fdc	0.0091857575
3	0x3c4423fa	0.011971468
4	0x3bda9376	0.0066704107
5	0x3c013c36	0.007887891
6	0x3b908305	0.00441015
7	0x3bd71709	0.0065640253
8	0x3bcf1e89	0.0063207787
9	0x3bc50eeb	0.0060137413
10	0x3c40821d	0.011749771
11	0x3b51427c	0.0031930497
12	0x3b798160	0.0038071498
13	0x3b8dfeb1	0.00433334
14	0x3bf7fc44	0.007567914
15	0x395c2eaa	0.00020998219
16	0x3b6dc070	0.0036278032
17	0x3bd46560	0.0064818114
18	0x3bc9168e	0.006136722
19	0x3bc0a8fe	0.0058795204
20	0x3c0fb10c	0.008770239
21	0x3c1dc293	0.00962891
22	0x3c1d921f	0.0096173575
23	0x3c2bd506	0.0104878
24	0x3af213f9	0.0018469087
25	0x3c57af04	0.013164286
26	0x3b9f3d18	0.004859578
27	0x3c28687c	0.010278817
28	0x3b689e17	0.003549462
29	0x3b6c3236	0.003604067
30	0x3b19988f	0.002343688
31	0x3c0594e3	0.008153173
32	0x3bd311d1	0.006441333
33	0x3bd32477	0.006443556
34	0x3c292210	0.010323063
35	0x3c2f9ec9	0.01071901
36	0x3b2bb596	0.0026200763
37	0x3b6ef491	0.003646169
38	0x3bc131d0	0.0058958307
39	0x3c1e5d53	0.009665805
40	0x3c0563db	0.008141483
41	0x3c145ac1	0.009054841
42	0x3bcf6089	0.0063286466
43	0x3bfc2fab	0.007696112
44	0x3c15b898	0.009138249
45	0x3b982f02	0.0046442756
46	0x3ba7c437	0.005119826
47	0x3c2ff526	0.0107396
48	0x3be58092	0.007003852
49	0x3c05908f	0.008152141
50	0x3bcb1652	0.006197729
51	0x3c34ab5b	0.011027182
52	0x3c0070dd	0.007839409
53	0x3c2300cd	0.009948921
54	0x3bca9626	0.00618245
55	0x3c0cb456	0.008587917
56	0x3aa230dd	0.0012374182
57	0x3bdd0dd0	0.0067460313
58	0x3b47348d	0.0030396313
59	0x3c009241	0.00784737
60	0x3ad47d20	0.0016211607
61	0x3babd10a	0.0052434253
62	0x3c2b2bdc	0.010447469
63	0x3b2b3b77	0.0026127973

network.6.running_var f4 [64]
0	0x39ec08ed	0.00045020078
1	0x38ebd1df	0.00011244765
2	0x392b1124	0.00016314216
3	0x39b1b21a	0.00033892767
4	0x38fcb57a	0.00012050099
5	0x397c6441	0.0002406994
6	0x3906267d	0.00012793574
7	0x38ff8ef7	0.00012185977
8	0x3921a878	0.00015416916
9	0x38f898f9	0.00011854055
10	0x39cf7ebc	0.0003957654
11	0x388beba9	6.6719316e-05
12	0x38aa1d03	8.1116355e-05
13	0x388c8feb	6.702527e-05
14	0x38fd65f9	0.00012082974
15	0x36f6fc38	7.3607334e-06
16	0x388057c7	6.1198654e-05
17	0x395d0691	0.00021078649
18	0x39208666	0.00015308856
19	0x392e593d	0.00016627177
20	0x395ffa32	0.00021360142
21	0x39b5d8d9	0.00034684574
22	0x39ac7d7a	0.00032899884
23	0x39924329	0.00027897328
24	0x3851f620	5.0058705e-05
25	0x39d02453	0.00039699915
26	0x38a589e2	7.893496e-05
27	0x39874169	0.0002579794
28	0x38c539a3	9.404428e-05
29	0x38971417	7.203983e-05
30	0x386ef501	5.69718e-05
31	0x397f0672	0.00024321096
32	0x38d9a473	0.000103779974
33	0x38c53c0d	9.404877e-05
34	0x39993514	0.0002922198
35	0x39abba03	0.0003275425
36	0x3826e801	3.9793555e-05
37	0x38a38ddf	7.798871e-05
38	0x39241665	0.00015648601
39	0x39b3b03a	0.0003427284
40	0x398ae9a1	0.00026495478
41	0x3966c66c	0.00022008427
42	0x39470cf4	0.00018982944
43	0x394f83aa	0.00019790107
44	0x3937dbb0	0.0001753408
45	0x38d80646	0.00010300851
46	0x38bc14a9	8.968387e-05
47	0x39a07d73	0.00030611045
48	0x392b7eca	0.00016355063
49	0x398c3a4e	0.0002674632
50	0x38c48698	9.371078e-05
51	0x39a65201	0.00031723085
52	0x398fd7f4	0.00027435983
53	0x39a2c0b5	0.00031042626
54	0x3918de7e	0.00014578734
55	0x39554617	0.00020339373
56	0x37929efb	1.7478587e-05
57	0x397ea510	0.00024284818
58	0x38c98acb	9.610279e-05
59	0x397df497	0.00024219077
60	0x37e56523	2.7346023e-05
61	0x38c3473e	9.3115945e-05
62	0x398a7897	0.00026411258
63	0x382fcac1	4.191208e-05

network.8.weight f4 [32, 64]
0	0xbc199642	-0.009374203
1	0xbcd5d5ea	-0.026102979
2	0xbcccb935	-0.024990657
3	0xbbb1af06	-0.0054224757
4	0xbdbffd15	-0.093744434
5	0xbab75d33	-0.0013989568
6	0xbc7a68d2	-0.01528378
7	0x3ab74bf8	0.0013984432
8	0x3c325797	0.010885141
9	0xbc847d94	-0.016173162
10	0x3b8a0526	0.0042120395
11	0xbd62d196	-0.055375658
12	0xbbe6ab98	-0.0070394985
13	0x3c387b8e	0.0112599265
14	0x3bbedc60	0.0058246106
15	0x3c1ec38a	0.009690175
16	0xb98f53bf	-0.0002733748
17	0xbae0e5d0	-0.0017158333
18	0x3baff4cc	0.0053697582
19	0x3b85d528	0.004084248
20	0xbb886bbf	-0.004163235
21	0xbb2cdba0	-0.0026376024
22	0xbc1335e6	-0.008985018
23	0xbc600d36	-0.013675025
24	0x3ba78b59	0.005113047
25	0xba49937e	-0.00076895196
26	0xbba143a6	-0.0049213944
27	0x3be83e6f	0.007087521
28	0x3b104d63	0.0022018782
29	0xbd83ad4d	-0.06429539
30	0xbb38a47a	-0.0028174208
31	0x3ab19b0b	0.0013550235
32	0xbc216d82	-0.009852769
33	0xbd4ebae0	-0.050471187
34	0x3b1e9701	0.0024198892
35	0x3b6bc499	0.0035975336
36	0xbb91afd7	-0.0044460106
37	0xbbe5a158	-0.007007759
38	0xbb55c6b1	-0.003261965
39	0xbbc09188	-0.0058767237
40	0xbaf3d85d	-0.001860391
41	0x3b7de26f	0.0038739701
42	0x3b170ca1	0.00230483
43	0xb9211a48	-0.00015363947
44	0xbcf5746e	-0.029962745
45	0x3bed7635	0.0072467574
46	0xbc066ac3	-0.008204165
47	0xbb3bff04	-0.0028685937
48	0xbbcf5a2d	-0.0063278885
49	0x3b0ca15a	0.0021458478
50	0x38ddee6e	0.00010582512
51	0xbbc73139	-0.006078866
52	0x3abc485d	0.0014364828
53	0xbbb3dbd6	-0.005488853
54	0x3be5666d	0.0070007355
55	0x3bbd299a	0.0057727816
56	0xbd7daa58	-0.06193003
57	0x3bb65f66	0.0055655716
58	0x3b9f4cf1	0.004861467
59	0x3c105abd	0.008810696
60	0x3b7ab722	0.0038256128
61	0xbd8d04ce	-0.06885682
62	0xba7eef6b	-0.0009725007
63	0xbd7f2820	-0.062294126
64	0xbcadc005	-0.021209726
65	0xbcead479	-0.028665768
66	0xbc6a41f9	-0.014297956
67	0xbd48a7d6	-0.048988186
68	0xbd297762	-0.041373618
69	0xbcc694d4	-0.024240889
70	0x3ca6ec17	0.020376248
71	0xbd7cfe5d	-0.061766017
72	0xbc916e22	-0.01775271
73	0xba7998d1	-0.00095213676
74	0x3c2bdb5d	0.010489312
75	0x3c87f2d1	0.016595276
76	0xbd3ca05c	-0.046051368
77	0xbbfd2c23	-0.007726209
78	0x3d02b0dd	0.03190695
79	0x3cfb7ac0	0.03069818
80	0x3ce4d2e5	0.027932594
81	0x3d58b8c2	0.052910574
82	0x3c4b5cac	0.012412231
83	0xbbe96bc5	-0.007123443
84	0xbd4e6e40	-0.05039811
85	0xbb81188d	-0.0039396943
86	0xbbb186dc	-0.005417688
87	0x3cea769a	0.028621007
88	0x3d49df09	0.04928497
89	0xbd6cc5a8	-0.057805687
90	0x3ce2aee7	0.02767129
91	0xbd3f423c	-0.046694025
92	0xbcafe9c1	-0.021473767
93	0xbb95d974	-0.0045730416
94	0x3d413f36	0.047179423
95	0x3c2b28cf	0.010446741
96	0x3d409a07	0.047021892
97	0xbc88e462	-0.016710464
98	0xbc314632	-0.0108199585
99	0xbc586f28	-0.013210095
100	0x3b70aa0f	0.0036722457
101	0xbd80bf4c	-0.06286487
102	0x3d0a32a0	0.033739686
103	0xbd7f2b23	-0.062296998
104	0x3cb5dac4	0.022199042
105	0x3c285919	0.010275149
106	0xbcec9acf	-0.028882412
107	0x3ca0ad83	0.019613987
108	0xbcd9d70a	-0.026591796
109	0xba8e9d0d	-0.0010880545
110	0x3d38fe5f	0.045164462
111	0x3c54893b	0.012972171
112	0x3cd01d95	0.02540473
113	0x3c94924a	0.018136162
114	0xbc81af46	-0.015830647
115	0x3b874c45	0.004128965
116	0xbd8fed72	-0.07027711
117	0x3c8f5aca	0.017499346
118	0x3b964d63	0.004586862
119	0xbc80d275	-0.015725354
120	0x3c138007	0.009002692
121	0xbb9eba51	-0.004843988
122	0x3d3ee39b	0.04660378
123	0xbcd56741	-0.026050212
124	0x3cb166d2	0.021655474
125	0x3ca5124f	0.020150332
126	0xbc99806f	-0.018738
127	0x3cd2e757	0.025745077
128	0x3beb22ca	0.007175778
129	0xbb4db5a7	-0.003138879
130	0x3be5abaf	0.0070089917
131	0x3a51b7b9	0.0008000094
132	0x3b9bc3c5	0.004753562
133	0x3b431dc1	0.0029772373
134	0x3bae8c54	0.005326787
135	0xba9bbe76	-0.0011882323
136	0xbc136697	-0.008996627
137	0x3b3215f6	0.0027173734
138	0xbb7edcc1	-0.0038888904
139	0x3bc90d01	0.0061355834
140	0x3b431c21	0.0029771405
141	0xbc0d6a00	-0.008631229
142	0xbbfc5fdf	-0.0077018584
143	0x3905edc3	0.00012772442
144	0xbc1fb697	-0.009748123
145	0x3aa66c7c	0.0012697126
146	0xbd5b637a	-0.053561665
147	0x3b8d04cd	0.004303551
148	0xbcb3210b	-0.021866342
149	0xbd68fe0a	-0.056882896
150	0xbc0a0708	-0.008424528
151	0xbd4ca60e	-0.04996305
152	0xbb37317a	-0.0027953074
153	0xba57d9b6	-0.00082340406
154	0xbbd62f32	-0.006536388
155	0x3b463d1c	0.0030248826
156	0xbb0d896c	-0.0021596802
157	0xb719a568	-9.158022e-06
158	0xbc7d5850	-0.01546295
159	0xbae0a9a9	-0.0017140406
160	0xbc5d03ea	-0.013489703
161	0xbb03c486	-0.002010615
162	0xbd30ff0c	-0.04321198
163	0xbb5fbc35	-0.003413928
164	0xbb06e335	-0.0020582203
165	0xba3d6a80	-0.00072256476
166	0x3b403aa4	0.0029331828
167	0x3b5169ba	0.0031953887
168	0xbd223c67	-0.039608385
169	0x3abce61a	0.0014411837
170	0xbd2d9fdc	-0.042388782
171	0xbbe048b6	-0.0068446053
172	0xbbf1c2c3	-0.0073779537
173	0xbb86a5bd	-0.004109113
174	0xbd904fdd	-0.07046483
175	0xbb6c7328	-0.003607938
176	0xbc35adb0	-0.011088774
177	0xbd856687	-0.06513696
178	0xbd9805a7	-0.07422953
179	0xbd9168d9	-0.07100076
180	0xbb57523a	-0.0032855407
181	0xbbe20b99	-0.006898355
182	0xbd969c41	-0.07354022
183	0x3b119f65	0.002222025
184	0xbcb2c44d	-0.02182212
185	0x39c57398	0.00037660892
186	0xbc4d5e6e	-0.012534721
187	0xbb478468	-0.003044391
188	0xbd559e78	-0.05215308
189	0x3ace04e2	0.0015718008
190	0xbd5807d6	-0.052741848
191	0xbd03ca00	-0.032175064
192	0xbb625bd2	-0.0034539592
193	0xbbf8cdd5	-0.0075928965
194	0xbc02a4a7	-0.0079738265
195	0x3b8d8f1d	0.004320039
196	0x3bd859b9	0.0066024926
197	0xbc29d4fc	-0.010365721
198	0x3b8483c3	0.0040440275
199	0xba48c788	-0.0007659127
200	0xbd58e4fb	-0.052952748
201	0xbb5d3194	-0.0033751475
202	0xbae8b1f3	-0.0017753228
203	0xbb23bd87	-0.0024984793
204	0xbb135ab7	-0.002248449
205	0xbd70b1b9	-0.05876324
206	0xbc4d30d6	-0.01252385
207	0xbaff1c6e	-0.0019463429
208	0xbbf09ebb	-0.007343141
209	0xbd107b26	-0.035273694
210	0xbd70b402	-0.05876542
211	0xbd250d51	-0.040295903
212	0x3bc5940f	0.006029613
213	0xbb916def	-0.004438154
214	0xba5fa2e0	-0.0008531045
215	0x3bb3cb12	0.0054868544
216	0xbcdf93bc	-0.027292125
217	0xbb8bc8b6	-0.00426587
218	0xbd81e38a	-0.06342228
219	0xbb5141c0	-0.003193006
220	0xbd22bbd3	-0.039729904
221	0x3b8eb255	0.004354755
222	0x3ab682ac	0.0013924441
223	0xba59759e	-0.00082954194
224	0x3b98156e	0.0046412265
225	0x3b6ce229	0.0036145544
226	0xbae87214	-0.0017734193
227	0xbb98b00a	-0.0046596574
228	0x38bdcf10	9.050791e-05
229	0xbd1f2f71	-0.038863603
230	0xbb12f279	-0.0022422357
231	0xbb5642f0	-0.0032693706
232	0xba90a82f	-0.0011036451
233	0xbb422145	-0.002962188
234	0xba72c72b	-0.0009261246
235	0xbd813f77	-0.06310933
236	0xba4f09b2	-0.0007897868
237	0xbd9230fb	-0.071382485
238	0xba7bcad8	-0.0009605116
239	0xbb797c85	-0.0038068604
240	0xbba6a633	-0.0050857305
241	0xbd674f19	-0.056471918
242	0xbaabadd0	-0.0013098065
243	0xbc4d5a89	-0.012533792
244	0xba8722b9	-0.0010310031
245	0xbbeea5da	-0.0072829546
246	0xbd6c1046	-0.057632707
247	0xbd97dfd3	-0.07415738
248	0x389ed73b	7.574117e-05
249	0xbb2ab469	-0.0026047474
250	0xbc623f8f	-0.013809099
251	0xbd69add8	-0.057050556
252	0xbce82f68	-0.028342918
253	0xbbcdf730	-0.0062855706
254	0xbb942edc	-0.0045221876
255	0xbad1f50e	-0.0016018467

network.8.bias f4 [32]
0	0x3ce629ab	0.02809604
1	0x3c0cbda3	0.008590135
2	0x3cb129cd	0.021626377
3	0x3cd4f59d	0.025996024
4	0x3cbea7ea	0.023273427
5	0x3ca70d70	0.02039215
6	0x3c99734f	0.018731741
7	0x3d0daed0	0.034590542
8	0x3c9d214f	0.019180922
9	0x3d00479c	0.031318292
10	0x3cc03b08	0.023465648
11	0x3d0185e7	0.03162184
12	0x3ce68cb3	0.028143262
13	0x3ce0f907	0.027462495
14	0x3c3dad00	0.011576891
15	0x3cdc4ceb	0.026892146
16	0x3d025c6b	0.031826418
17	0x3cad8ed4	0.02118627
18	0x3d008245	0.031374235
19	0x3ce359fa	0.027752865
20	0x3cf57611	0.029963525
21	0x3cc5e5e0	0.024157465
22	0x3ccf9a24	0.025342055
23	0x3cce2854	0.025165714
24	0x3cd34c17	0.025793118
25	0x3c8e4c2d	0.017370308
26	0x3cf12fee	0.0294418
27	0x3a104b16	0.0005504353
28	0x3cd70abf	0.026250241
29	0x3cb6fbdd	0.022336895
30	0x3be9626a	0.0071223276
31	0x3ccc9dbd	0.02497756

network.10.weight f4 [32]
0	0x3f6e8d72	0.9318458
1	0x3f164021	0.586916
2	0x3f8c65b0	1.0968533
3	0x3f914e4d	1.135202
4	0x3f23659b	0.6382691
5	0x3f893f0d	1.0722367
6	0x3f7fcfff	0.9992675
7	0x3f7f5198	0.9973388
8	0x3f855dc3	1.0419239
9	0x3f8376f9	1.0270683
10	0x3f201e5b	0.6254632
11	0x3f361ca6	0.71137464
12	0x3f4728c3	0.7779657
13	0x3f9119cd	1.1335999
14	0x3f0e5aa9	0.55607086
15	0x3f590069	0.8476625
16	0x3f8cfc82	1.1014559
17	0x3f1f478f	0.62218565
18	0x3f8b4274	1.0879655
19	0x3f9a3cc7	1.2049798
20	0x3f909a3e	1.1297071
21	0x3f8fcec4	1.1234975
22	0x3f825b8c	1.0184188
23	0x3f83d29d	1.0298649
24	0x3f8ab93e	1.0837781
25	0x3f2e5bf4	0.6810906
26	0x3f84a240	1.0362015
27	0x3f19aeef	0.6003255
28	0x3f74a18e	0.9555901
29	0x3f873c5a	1.0565293
30	0x3f1d480f	0.6143808
31	0x3f9688c3	1.1760486

network.10.bias f4 [32]
0	0x3ba7faa7	0.0051263156
1	0x3e4eb82a	0.2018744
2	0xbdd7ad35	-0.105310835
3	0xbc81c9fd	-0.015843386
4	0x3e7edd46	0.24889097
5	0xbdada6e8	-0.084791005
6	0xbdd261aa	-0.10272534
7	0x3ba22c3e	0.0049491217
8	0xbcda2b22	-0.026631895
9	0x3b2f3570	0.0026734732
10	0x3e27d62f	0.16390298
11	0x3e72de34	0.23717576
12	0x3e0ae86f	0.13565229
13	0xbd83c72c	-0.064344734
14	0x3e2657dc	0.16244453
15	0x3d86a44c	0.06574306
16	0x3d116dcd	0.035505105
17	0x3e4b6b1e	0.1986508
18	0x3b7670a4	0.003760376
19	0xbd12b8b2	-0.03582067
20	0xbd49d607	-0.049276378
21	0xbc1d79f7	-0.009611598
22	0x3bf87c78	0.007583197
23	0xbdc5c71a	-0.09657116
24	0xbc8aa854	-0.016925968
25	0x3e333f8e	0.17504713
26	0x3cfcd1dd	0.03086179
27	0x3e4f4808	0.20242321
28	0x3bedf7e4	0.007262217
29	0xbdc4aa8c	-0.09602842
30	0x3e49060f	0.19631217
31	0x3c563c60	0.013075918

network.10.running_mean f4 [32]
0	0x3c9ec6a5	0.01938183
1	0x3ca22e94	0.0197976
2	0x3c59f298	0.013302468
3	0x3c88493f	0.016636489
4	0x3cb4a3f8	0.022050843
5	0x3c5a7ad8	0.013334952
6	0x3c614d97	0.013751409
7	0x3cd25d30	0.0256792
8	0x3c536e1c	0.01290467
9	0x3ccb276b	0.02479907
10	0x3ca46d5c	0.020071678
11	0x3cba965d	0.022776777
12	0x3ca20f6a	0.01978274
13	0x3c966b3c	0.01836168
14	0x3c845d81	0.016157867
15	0x3ca0a7d1	0.019611271
16	0x3cbb1c8f	0.022840766
17	0x3c9ea284	0.019364603
18	0x3cbd6e6c	0.023123942
19	0x3c8a350d	0.016871
20	0x3c907431	0.01763353
21	0x3c8d451f	0.017244874
22	0x3c8fb682	0.017543081
23	0x3c7c4052	0.0153961945
24	0x3c80b934	0.015713312
25	0x3cb3d3dc	0.021951608
26	0x3c94b873	0.018154358
27	0x3ca0c449	0.019624846
28	0x3c7d139b	0.015446569
29	0x3c6938fd	0.0142347785
30	0x3c7b1c77	0.015326611
31	0x3c989a00	0.01862812
